node {
  name: "global_step"
  op: "Variable"
  attr {
    key: "_output_shapes"
    value {
      list {
        shape {
        }
      }
    }
  }
  attr {
    key: "container"
    value {
      s: ""
    }
  }
  attr {
    key: "dtype"
    value {
      type: DT_INT64
    }
  }
  attr {
    key: "shape"
    value {
      shape {
      }
    }
  }
  attr {
    key: "shared_name"
    value {
      s: ""
    }
  }
}
node {
  name: "global_step/Initializer/zeros"
  op: "Const"
  attr {
    key: "_class"
    value {
      list {
        s: "loc:@global_step"
      }
    }
  }
  attr {
    key: "_output_shapes"
    value {
      list {
        shape {
        }
      }
    }
  }
  attr {
    key: "dtype"
    value {
      type: DT_INT64
    }
  }
  attr {
    key: "value"
    value {
      tensor {
        dtype: DT_INT64
        tensor_shape {
        }
        int64_val: 0
      }
    }
  }
}
node {
  name: "global_step/Assign"
  op: "Assign"
  input: "global_step"
  input: "global_step/Initializer/zeros"
  attr {
    key: "T"
    value {
      type: DT_INT64
    }
  }
  attr {
    key: "_class"
    value {
      list {
        s: "loc:@global_step"
      }
    }
  }
  attr {
    key: "_output_shapes"
    value {
      list {
        shape {
        }
      }
    }
  }
  attr {
    key: "use_locking"
    value {
      b: true
    }
  }
  attr {
    key: "validate_shape"
    value {
      b: true
    }
  }
}
node {
  name: "global_step/read"
  op: "Identity"
  input: "global_step"
  attr {
    key: "T"
    value {
      type: DT_INT64
    }
  }
  attr {
    key: "_class"
    value {
      list {
        s: "loc:@global_step"
      }
    }
  }
  attr {
    key: "_output_shapes"
    value {
      list {
        shape {
        }
      }
    }
  }
}
node {
  name: "input"
  op: "Placeholder"
  attr {
    key: "_output_shapes"
    value {
      list {
        shape {
          dim {
            size: -1
          }
          dim {
            size: 30
          }
          dim {
            size: 1
          }
        }
      }
    }
  }
  attr {
    key: "dtype"
    value {
      type: DT_FLOAT
    }
  }
  attr {
    key: "shape"
    value {
      shape {
      }
    }
  }
}
node {
  name: "output"
  op: "Placeholder"
  attr {
    key: "_output_shapes"
    value {
      list {
        shape {
          dim {
            size: -1
          }
        }
      }
    }
  }
  attr {
    key: "dtype"
    value {
      type: DT_FLOAT
    }
  }
  attr {
    key: "shape"
    value {
      shape {
      }
    }
  }
}
node {
  name: "unpack"
  op: "Unpack"
  input: "input"
  attr {
    key: "T"
    value {
      type: DT_FLOAT
    }
  }
  attr {
    key: "_output_shapes"
    value {
      list {
        shape {
          dim {
            size: -1
          }
          dim {
            size: 1
          }
        }
        shape {
          dim {
            size: -1
          }
          dim {
            size: 1
          }
        }
        shape {
          dim {
            size: -1
          }
          dim {
            size: 1
          }
        }
        shape {
          dim {
            size: -1
          }
          dim {
            size: 1
          }
        }
        shape {
          dim {
            size: -1
          }
          dim {
            size: 1
          }
        }
        shape {
          dim {
            size: -1
          }
          dim {
            size: 1
          }
        }
        shape {
          dim {
            size: -1
          }
          dim {
            size: 1
          }
        }
        shape {
          dim {
            size: -1
          }
          dim {
            size: 1
          }
        }
        shape {
          dim {
            size: -1
          }
          dim {
            size: 1
          }
        }
        shape {
          dim {
            size: -1
          }
          dim {
            size: 1
          }
        }
        shape {
          dim {
            size: -1
          }
          dim {
            size: 1
          }
        }
        shape {
          dim {
            size: -1
          }
          dim {
            size: 1
          }
        }
        shape {
          dim {
            size: -1
          }
          dim {
            size: 1
          }
        }
        shape {
          dim {
            size: -1
          }
          dim {
            size: 1
          }
        }
        shape {
          dim {
            size: -1
          }
          dim {
            size: 1
          }
        }
        shape {
          dim {
            size: -1
          }
          dim {
            size: 1
          }
        }
        shape {
          dim {
            size: -1
          }
          dim {
            size: 1
          }
        }
        shape {
          dim {
            size: -1
          }
          dim {
            size: 1
          }
        }
        shape {
          dim {
            size: -1
          }
          dim {
            size: 1
          }
        }
        shape {
          dim {
            size: -1
          }
          dim {
            size: 1
          }
        }
        shape {
          dim {
            size: -1
          }
          dim {
            size: 1
          }
        }
        shape {
          dim {
            size: -1
          }
          dim {
            size: 1
          }
        }
        shape {
          dim {
            size: -1
          }
          dim {
            size: 1
          }
        }
        shape {
          dim {
            size: -1
          }
          dim {
            size: 1
          }
        }
        shape {
          dim {
            size: -1
          }
          dim {
            size: 1
          }
        }
        shape {
          dim {
            size: -1
          }
          dim {
            size: 1
          }
        }
        shape {
          dim {
            size: -1
          }
          dim {
            size: 1
          }
        }
        shape {
          dim {
            size: -1
          }
          dim {
            size: 1
          }
        }
        shape {
          dim {
            size: -1
          }
          dim {
            size: 1
          }
        }
        shape {
          dim {
            size: -1
          }
          dim {
            size: 1
          }
        }
      }
    }
  }
  attr {
    key: "axis"
    value {
      i: 1
    }
  }
  attr {
    key: "num"
    value {
      i: 30
    }
  }
}
node {
  name: "RNN/Shape"
  op: "Shape"
  input: "unpack"
  attr {
    key: "T"
    value {
      type: DT_FLOAT
    }
  }
  attr {
    key: "_output_shapes"
    value {
      list {
        shape {
          dim {
            size: 2
          }
        }
      }
    }
  }
  attr {
    key: "out_type"
    value {
      type: DT_INT32
    }
  }
}
node {
  name: "RNN/strided_slice/stack"
  op: "Const"
  attr {
    key: "_output_shapes"
    value {
      list {
        shape {
          dim {
            size: 1
          }
        }
      }
    }
  }
  attr {
    key: "dtype"
    value {
      type: DT_INT32
    }
  }
  attr {
    key: "value"
    value {
      tensor {
        dtype: DT_INT32
        tensor_shape {
          dim {
            size: 1
          }
        }
        int_val: 0
      }
    }
  }
}
node {
  name: "RNN/strided_slice/stack_1"
  op: "Const"
  attr {
    key: "_output_shapes"
    value {
      list {
        shape {
          dim {
            size: 1
          }
        }
      }
    }
  }
  attr {
    key: "dtype"
    value {
      type: DT_INT32
    }
  }
  attr {
    key: "value"
    value {
      tensor {
        dtype: DT_INT32
        tensor_shape {
          dim {
            size: 1
          }
        }
        int_val: 1
      }
    }
  }
}
node {
  name: "RNN/strided_slice/stack_2"
  op: "Const"
  attr {
    key: "_output_shapes"
    value {
      list {
        shape {
          dim {
            size: 1
          }
        }
      }
    }
  }
  attr {
    key: "dtype"
    value {
      type: DT_INT32
    }
  }
  attr {
    key: "value"
    value {
      tensor {
        dtype: DT_INT32
        tensor_shape {
          dim {
            size: 1
          }
        }
        int_val: 1
      }
    }
  }
}
node {
  name: "RNN/strided_slice"
  op: "StridedSlice"
  input: "RNN/Shape"
  input: "RNN/strided_slice/stack"
  input: "RNN/strided_slice/stack_1"
  input: "RNN/strided_slice/stack_2"
  attr {
    key: "Index"
    value {
      type: DT_INT32
    }
  }
  attr {
    key: "T"
    value {
      type: DT_INT32
    }
  }
  attr {
    key: "_output_shapes"
    value {
      list {
        shape {
        }
      }
    }
  }
  attr {
    key: "begin_mask"
    value {
      i: 0
    }
  }
  attr {
    key: "ellipsis_mask"
    value {
      i: 0
    }
  }
  attr {
    key: "end_mask"
    value {
      i: 0
    }
  }
  attr {
    key: "new_axis_mask"
    value {
      i: 0
    }
  }
  attr {
    key: "shrink_axis_mask"
    value {
      i: 1
    }
  }
}
node {
  name: "RNN/pack/1"
  op: "Const"
  attr {
    key: "_output_shapes"
    value {
      list {
        shape {
        }
      }
    }
  }
  attr {
    key: "dtype"
    value {
      type: DT_INT32
    }
  }
  attr {
    key: "value"
    value {
      tensor {
        dtype: DT_INT32
        tensor_shape {
        }
        int_val: 5
      }
    }
  }
}
node {
  name: "RNN/pack"
  op: "Pack"
  input: "RNN/strided_slice"
  input: "RNN/pack/1"
  attr {
    key: "N"
    value {
      i: 2
    }
  }
  attr {
    key: "T"
    value {
      type: DT_INT32
    }
  }
  attr {
    key: "_output_shapes"
    value {
      list {
        shape {
          dim {
            size: 2
          }
        }
      }
    }
  }
  attr {
    key: "axis"
    value {
      i: 0
    }
  }
}
node {
  name: "RNN/zeros/Const"
  op: "Const"
  attr {
    key: "_output_shapes"
    value {
      list {
        shape {
        }
      }
    }
  }
  attr {
    key: "dtype"
    value {
      type: DT_FLOAT
    }
  }
  attr {
    key: "value"
    value {
      tensor {
        dtype: DT_FLOAT
        tensor_shape {
        }
        float_val: 0.0
      }
    }
  }
}
node {
  name: "RNN/zeros"
  op: "Fill"
  input: "RNN/pack"
  input: "RNN/zeros/Const"
  attr {
    key: "T"
    value {
      type: DT_FLOAT
    }
  }
  attr {
    key: "_output_shapes"
    value {
      list {
        shape {
          dim {
            size: -1
          }
          dim {
            size: 5
          }
        }
      }
    }
  }
}
node {
  name: "RNN/pack_1/1"
  op: "Const"
  attr {
    key: "_output_shapes"
    value {
      list {
        shape {
        }
      }
    }
  }
  attr {
    key: "dtype"
    value {
      type: DT_INT32
    }
  }
  attr {
    key: "value"
    value {
      tensor {
        dtype: DT_INT32
        tensor_shape {
        }
        int_val: 5
      }
    }
  }
}
node {
  name: "RNN/pack_1"
  op: "Pack"
  input: "RNN/strided_slice"
  input: "RNN/pack_1/1"
  attr {
    key: "N"
    value {
      i: 2
    }
  }
  attr {
    key: "T"
    value {
      type: DT_INT32
    }
  }
  attr {
    key: "_output_shapes"
    value {
      list {
        shape {
          dim {
            size: 2
          }
        }
      }
    }
  }
  attr {
    key: "axis"
    value {
      i: 0
    }
  }
}
node {
  name: "RNN/zeros_1/Const"
  op: "Const"
  attr {
    key: "_output_shapes"
    value {
      list {
        shape {
        }
      }
    }
  }
  attr {
    key: "dtype"
    value {
      type: DT_FLOAT
    }
  }
  attr {
    key: "value"
    value {
      tensor {
        dtype: DT_FLOAT
        tensor_shape {
        }
        float_val: 0.0
      }
    }
  }
}
node {
  name: "RNN/zeros_1"
  op: "Fill"
  input: "RNN/pack_1"
  input: "RNN/zeros_1/Const"
  attr {
    key: "T"
    value {
      type: DT_FLOAT
    }
  }
  attr {
    key: "_output_shapes"
    value {
      list {
        shape {
          dim {
            size: -1
          }
          dim {
            size: 5
          }
        }
      }
    }
  }
}
node {
  name: "RNN/MultiRNNCell/Cell0/BasicLSTMCell/Linear/Matrix"
  op: "Variable"
  attr {
    key: "_output_shapes"
    value {
      list {
        shape {
          dim {
            size: 6
          }
          dim {
            size: 20
          }
        }
      }
    }
  }
  attr {
    key: "container"
    value {
      s: ""
    }
  }
  attr {
    key: "dtype"
    value {
      type: DT_FLOAT
    }
  }
  attr {
    key: "shape"
    value {
      shape {
        dim {
          size: 6
        }
        dim {
          size: 20
        }
      }
    }
  }
  attr {
    key: "shared_name"
    value {
      s: ""
    }
  }
}
node {
  name: "RNN/MultiRNNCell/Cell0/BasicLSTMCell/Linear/Matrix/Initializer/random_uniform/shape"
  op: "Const"
  attr {
    key: "_class"
    value {
      list {
        s: "loc:@RNN/MultiRNNCell/Cell0/BasicLSTMCell/Linear/Matrix"
      }
    }
  }
  attr {
    key: "_output_shapes"
    value {
      list {
        shape {
          dim {
            size: 2
          }
        }
      }
    }
  }
  attr {
    key: "dtype"
    value {
      type: DT_INT32
    }
  }
  attr {
    key: "value"
    value {
      tensor {
        dtype: DT_INT32
        tensor_shape {
          dim {
            size: 2
          }
        }
        tensor_content: "\006\000\000\000\024\000\000\000"
      }
    }
  }
}
node {
  name: "RNN/MultiRNNCell/Cell0/BasicLSTMCell/Linear/Matrix/Initializer/random_uniform/min"
  op: "Const"
  attr {
    key: "_class"
    value {
      list {
        s: "loc:@RNN/MultiRNNCell/Cell0/BasicLSTMCell/Linear/Matrix"
      }
    }
  }
  attr {
    key: "_output_shapes"
    value {
      list {
        shape {
        }
      }
    }
  }
  attr {
    key: "dtype"
    value {
      type: DT_FLOAT
    }
  }
  attr {
    key: "value"
    value {
      tensor {
        dtype: DT_FLOAT
        tensor_shape {
        }
        float_val: -0.7071067690849304
      }
    }
  }
}
node {
  name: "RNN/MultiRNNCell/Cell0/BasicLSTMCell/Linear/Matrix/Initializer/random_uniform/max"
  op: "Const"
  attr {
    key: "_class"
    value {
      list {
        s: "loc:@RNN/MultiRNNCell/Cell0/BasicLSTMCell/Linear/Matrix"
      }
    }
  }
  attr {
    key: "_output_shapes"
    value {
      list {
        shape {
        }
      }
    }
  }
  attr {
    key: "dtype"
    value {
      type: DT_FLOAT
    }
  }
  attr {
    key: "value"
    value {
      tensor {
        dtype: DT_FLOAT
        tensor_shape {
        }
        float_val: 0.7071067690849304
      }
    }
  }
}
node {
  name: "RNN/MultiRNNCell/Cell0/BasicLSTMCell/Linear/Matrix/Initializer/random_uniform/RandomUniform"
  op: "RandomUniform"
  input: "RNN/MultiRNNCell/Cell0/BasicLSTMCell/Linear/Matrix/Initializer/random_uniform/shape"
  attr {
    key: "T"
    value {
      type: DT_INT32
    }
  }
  attr {
    key: "_class"
    value {
      list {
        s: "loc:@RNN/MultiRNNCell/Cell0/BasicLSTMCell/Linear/Matrix"
      }
    }
  }
  attr {
    key: "_output_shapes"
    value {
      list {
        shape {
          dim {
            size: 6
          }
          dim {
            size: 20
          }
        }
      }
    }
  }
  attr {
    key: "dtype"
    value {
      type: DT_FLOAT
    }
  }
  attr {
    key: "seed"
    value {
      i: 0
    }
  }
  attr {
    key: "seed2"
    value {
      i: 0
    }
  }
}
node {
  name: "RNN/MultiRNNCell/Cell0/BasicLSTMCell/Linear/Matrix/Initializer/random_uniform/sub"
  op: "Sub"
  input: "RNN/MultiRNNCell/Cell0/BasicLSTMCell/Linear/Matrix/Initializer/random_uniform/max"
  input: "RNN/MultiRNNCell/Cell0/BasicLSTMCell/Linear/Matrix/Initializer/random_uniform/min"
  attr {
    key: "T"
    value {
      type: DT_FLOAT
    }
  }
  attr {
    key: "_class"
    value {
      list {
        s: "loc:@RNN/MultiRNNCell/Cell0/BasicLSTMCell/Linear/Matrix"
      }
    }
  }
  attr {
    key: "_output_shapes"
    value {
      list {
        shape {
        }
      }
    }
  }
}
node {
  name: "RNN/MultiRNNCell/Cell0/BasicLSTMCell/Linear/Matrix/Initializer/random_uniform/mul"
  op: "Mul"
  input: "RNN/MultiRNNCell/Cell0/BasicLSTMCell/Linear/Matrix/Initializer/random_uniform/RandomUniform"
  input: "RNN/MultiRNNCell/Cell0/BasicLSTMCell/Linear/Matrix/Initializer/random_uniform/sub"
  attr {
    key: "T"
    value {
      type: DT_FLOAT
    }
  }
  attr {
    key: "_class"
    value {
      list {
        s: "loc:@RNN/MultiRNNCell/Cell0/BasicLSTMCell/Linear/Matrix"
      }
    }
  }
  attr {
    key: "_output_shapes"
    value {
      list {
        shape {
          dim {
            size: 6
          }
          dim {
            size: 20
          }
        }
      }
    }
  }
}
node {
  name: "RNN/MultiRNNCell/Cell0/BasicLSTMCell/Linear/Matrix/Initializer/random_uniform"
  op: "Add"
  input: "RNN/MultiRNNCell/Cell0/BasicLSTMCell/Linear/Matrix/Initializer/random_uniform/mul"
  input: "RNN/MultiRNNCell/Cell0/BasicLSTMCell/Linear/Matrix/Initializer/random_uniform/min"
  attr {
    key: "T"
    value {
      type: DT_FLOAT
    }
  }
  attr {
    key: "_class"
    value {
      list {
        s: "loc:@RNN/MultiRNNCell/Cell0/BasicLSTMCell/Linear/Matrix"
      }
    }
  }
  attr {
    key: "_output_shapes"
    value {
      list {
        shape {
          dim {
            size: 6
          }
          dim {
            size: 20
          }
        }
      }
    }
  }
}
node {
  name: "RNN/MultiRNNCell/Cell0/BasicLSTMCell/Linear/Matrix/Assign"
  op: "Assign"
  input: "RNN/MultiRNNCell/Cell0/BasicLSTMCell/Linear/Matrix"
  input: "RNN/MultiRNNCell/Cell0/BasicLSTMCell/Linear/Matrix/Initializer/random_uniform"
  attr {
    key: "T"
    value {
      type: DT_FLOAT
    }
  }
  attr {
    key: "_class"
    value {
      list {
        s: "loc:@RNN/MultiRNNCell/Cell0/BasicLSTMCell/Linear/Matrix"
      }
    }
  }
  attr {
    key: "_output_shapes"
    value {
      list {
        shape {
          dim {
            size: 6
          }
          dim {
            size: 20
          }
        }
      }
    }
  }
  attr {
    key: "use_locking"
    value {
      b: true
    }
  }
  attr {
    key: "validate_shape"
    value {
      b: true
    }
  }
}
node {
  name: "RNN/MultiRNNCell/Cell0/BasicLSTMCell/Linear/Matrix/read"
  op: "Identity"
  input: "RNN/MultiRNNCell/Cell0/BasicLSTMCell/Linear/Matrix"
  attr {
    key: "T"
    value {
      type: DT_FLOAT
    }
  }
  attr {
    key: "_output_shapes"
    value {
      list {
        shape {
          dim {
            size: 6
          }
          dim {
            size: 20
          }
        }
      }
    }
  }
}
node {
  name: "RNN/MultiRNNCell/Cell0/BasicLSTMCell/Linear/concat/concat_dim"
  op: "Const"
  attr {
    key: "_output_shapes"
    value {
      list {
        shape {
        }
      }
    }
  }
  attr {
    key: "dtype"
    value {
      type: DT_INT32
    }
  }
  attr {
    key: "value"
    value {
      tensor {
        dtype: DT_INT32
        tensor_shape {
        }
        int_val: 1
      }
    }
  }
}
node {
  name: "RNN/MultiRNNCell/Cell0/BasicLSTMCell/Linear/concat"
  op: "Concat"
  input: "RNN/MultiRNNCell/Cell0/BasicLSTMCell/Linear/concat/concat_dim"
  input: "unpack"
  input: "RNN/zeros_1"
  attr {
    key: "N"
    value {
      i: 2
    }
  }
  attr {
    key: "T"
    value {
      type: DT_FLOAT
    }
  }
  attr {
    key: "_output_shapes"
    value {
      list {
        shape {
          dim {
            size: -1
          }
          dim {
            size: 6
          }
        }
      }
    }
  }
}
node {
  name: "RNN/MultiRNNCell/Cell0/BasicLSTMCell/Linear/MatMul"
  op: "MatMul"
  input: "RNN/MultiRNNCell/Cell0/BasicLSTMCell/Linear/concat"
  input: "RNN/MultiRNNCell/Cell0/BasicLSTMCell/Linear/Matrix/read"
  attr {
    key: "T"
    value {
      type: DT_FLOAT
    }
  }
  attr {
    key: "_output_shapes"
    value {
      list {
        shape {
          dim {
            size: -1
          }
          dim {
            size: 20
          }
        }
      }
    }
  }
  attr {
    key: "transpose_a"
    value {
      b: false
    }
  }
  attr {
    key: "transpose_b"
    value {
      b: false
    }
  }
}
node {
  name: "RNN/MultiRNNCell/Cell0/BasicLSTMCell/Linear/Bias"
  op: "Variable"
  attr {
    key: "_output_shapes"
    value {
      list {
        shape {
          dim {
            size: 20
          }
        }
      }
    }
  }
  attr {
    key: "container"
    value {
      s: ""
    }
  }
  attr {
    key: "dtype"
    value {
      type: DT_FLOAT
    }
  }
  attr {
    key: "shape"
    value {
      shape {
        dim {
          size: 20
        }
      }
    }
  }
  attr {
    key: "shared_name"
    value {
      s: ""
    }
  }
}
node {
  name: "RNN/MultiRNNCell/Cell0/BasicLSTMCell/Linear/Bias/Initializer/Const"
  op: "Const"
  attr {
    key: "_class"
    value {
      list {
        s: "loc:@RNN/MultiRNNCell/Cell0/BasicLSTMCell/Linear/Bias"
      }
    }
  }
  attr {
    key: "_output_shapes"
    value {
      list {
        shape {
          dim {
            size: 20
          }
        }
      }
    }
  }
  attr {
    key: "dtype"
    value {
      type: DT_FLOAT
    }
  }
  attr {
    key: "value"
    value {
      tensor {
        dtype: DT_FLOAT
        tensor_shape {
          dim {
            size: 20
          }
        }
        float_val: 0.0
      }
    }
  }
}
node {
  name: "RNN/MultiRNNCell/Cell0/BasicLSTMCell/Linear/Bias/Assign"
  op: "Assign"
  input: "RNN/MultiRNNCell/Cell0/BasicLSTMCell/Linear/Bias"
  input: "RNN/MultiRNNCell/Cell0/BasicLSTMCell/Linear/Bias/Initializer/Const"
  attr {
    key: "T"
    value {
      type: DT_FLOAT
    }
  }
  attr {
    key: "_class"
    value {
      list {
        s: "loc:@RNN/MultiRNNCell/Cell0/BasicLSTMCell/Linear/Bias"
      }
    }
  }
  attr {
    key: "_output_shapes"
    value {
      list {
        shape {
          dim {
            size: 20
          }
        }
      }
    }
  }
  attr {
    key: "use_locking"
    value {
      b: true
    }
  }
  attr {
    key: "validate_shape"
    value {
      b: true
    }
  }
}
node {
  name: "RNN/MultiRNNCell/Cell0/BasicLSTMCell/Linear/Bias/read"
  op: "Identity"
  input: "RNN/MultiRNNCell/Cell0/BasicLSTMCell/Linear/Bias"
  attr {
    key: "T"
    value {
      type: DT_FLOAT
    }
  }
  attr {
    key: "_output_shapes"
    value {
      list {
        shape {
          dim {
            size: 20
          }
        }
      }
    }
  }
}
node {
  name: "RNN/MultiRNNCell/Cell0/BasicLSTMCell/add"
  op: "Add"
  input: "RNN/MultiRNNCell/Cell0/BasicLSTMCell/Linear/MatMul"
  input: "RNN/MultiRNNCell/Cell0/BasicLSTMCell/Linear/Bias/read"
  attr {
    key: "T"
    value {
      type: DT_FLOAT
    }
  }
  attr {
    key: "_output_shapes"
    value {
      list {
        shape {
          dim {
            size: -1
          }
          dim {
            size: 20
          }
        }
      }
    }
  }
}
node {
  name: "RNN/MultiRNNCell/Cell0/BasicLSTMCell/split/split_dim"
  op: "Const"
  attr {
    key: "_output_shapes"
    value {
      list {
        shape {
        }
      }
    }
  }
  attr {
    key: "dtype"
    value {
      type: DT_INT32
    }
  }
  attr {
    key: "value"
    value {
      tensor {
        dtype: DT_INT32
        tensor_shape {
        }
        int_val: 1
      }
    }
  }
}
node {
  name: "RNN/MultiRNNCell/Cell0/BasicLSTMCell/split"
  op: "Split"
  input: "RNN/MultiRNNCell/Cell0/BasicLSTMCell/split/split_dim"
  input: "RNN/MultiRNNCell/Cell0/BasicLSTMCell/add"
  attr {
    key: "T"
    value {
      type: DT_FLOAT
    }
  }
  attr {
    key: "_output_shapes"
    value {
      list {
        shape {
          dim {
            size: -1
          }
          dim {
            size: 5
          }
        }
        shape {
          dim {
            size: -1
          }
          dim {
            size: 5
          }
        }
        shape {
          dim {
            size: -1
          }
          dim {
            size: 5
          }
        }
        shape {
          dim {
            size: -1
          }
          dim {
            size: 5
          }
        }
      }
    }
  }
  attr {
    key: "num_split"
    value {
      i: 4
    }
  }
}
node {
  name: "RNN/MultiRNNCell/Cell0/BasicLSTMCell/add_1/y"
  op: "Const"
  attr {
    key: "_output_shapes"
    value {
      list {
        shape {
        }
      }
    }
  }
  attr {
    key: "dtype"
    value {
      type: DT_FLOAT
    }
  }
  attr {
    key: "value"
    value {
      tensor {
        dtype: DT_FLOAT
        tensor_shape {
        }
        float_val: 1.0
      }
    }
  }
}
node {
  name: "RNN/MultiRNNCell/Cell0/BasicLSTMCell/add_1"
  op: "Add"
  input: "RNN/MultiRNNCell/Cell0/BasicLSTMCell/split:2"
  input: "RNN/MultiRNNCell/Cell0/BasicLSTMCell/add_1/y"
  attr {
    key: "T"
    value {
      type: DT_FLOAT
    }
  }
  attr {
    key: "_output_shapes"
    value {
      list {
        shape {
          dim {
            size: -1
          }
          dim {
            size: 5
          }
        }
      }
    }
  }
}
node {
  name: "RNN/MultiRNNCell/Cell0/BasicLSTMCell/Sigmoid"
  op: "Sigmoid"
  input: "RNN/MultiRNNCell/Cell0/BasicLSTMCell/add_1"
  attr {
    key: "T"
    value {
      type: DT_FLOAT
    }
  }
  attr {
    key: "_output_shapes"
    value {
      list {
        shape {
          dim {
            size: -1
          }
          dim {
            size: 5
          }
        }
      }
    }
  }
}
node {
  name: "RNN/MultiRNNCell/Cell0/BasicLSTMCell/mul"
  op: "Mul"
  input: "RNN/zeros"
  input: "RNN/MultiRNNCell/Cell0/BasicLSTMCell/Sigmoid"
  attr {
    key: "T"
    value {
      type: DT_FLOAT
    }
  }
  attr {
    key: "_output_shapes"
    value {
      list {
        shape {
          dim {
            size: -1
          }
          dim {
            size: 5
          }
        }
      }
    }
  }
}
node {
  name: "RNN/MultiRNNCell/Cell0/BasicLSTMCell/Sigmoid_1"
  op: "Sigmoid"
  input: "RNN/MultiRNNCell/Cell0/BasicLSTMCell/split"
  attr {
    key: "T"
    value {
      type: DT_FLOAT
    }
  }
  attr {
    key: "_output_shapes"
    value {
      list {
        shape {
          dim {
            size: -1
          }
          dim {
            size: 5
          }
        }
      }
    }
  }
}
node {
  name: "RNN/MultiRNNCell/Cell0/BasicLSTMCell/Tanh"
  op: "Tanh"
  input: "RNN/MultiRNNCell/Cell0/BasicLSTMCell/split:1"
  attr {
    key: "T"
    value {
      type: DT_FLOAT
    }
  }
  attr {
    key: "_output_shapes"
    value {
      list {
        shape {
          dim {
            size: -1
          }
          dim {
            size: 5
          }
        }
      }
    }
  }
}
node {
  name: "RNN/MultiRNNCell/Cell0/BasicLSTMCell/mul_1"
  op: "Mul"
  input: "RNN/MultiRNNCell/Cell0/BasicLSTMCell/Sigmoid_1"
  input: "RNN/MultiRNNCell/Cell0/BasicLSTMCell/Tanh"
  attr {
    key: "T"
    value {
      type: DT_FLOAT
    }
  }
  attr {
    key: "_output_shapes"
    value {
      list {
        shape {
          dim {
            size: -1
          }
          dim {
            size: 5
          }
        }
      }
    }
  }
}
node {
  name: "RNN/MultiRNNCell/Cell0/BasicLSTMCell/add_2"
  op: "Add"
  input: "RNN/MultiRNNCell/Cell0/BasicLSTMCell/mul"
  input: "RNN/MultiRNNCell/Cell0/BasicLSTMCell/mul_1"
  attr {
    key: "T"
    value {
      type: DT_FLOAT
    }
  }
  attr {
    key: "_output_shapes"
    value {
      list {
        shape {
          dim {
            size: -1
          }
          dim {
            size: 5
          }
        }
      }
    }
  }
}
node {
  name: "RNN/MultiRNNCell/Cell0/BasicLSTMCell/Tanh_1"
  op: "Tanh"
  input: "RNN/MultiRNNCell/Cell0/BasicLSTMCell/add_2"
  attr {
    key: "T"
    value {
      type: DT_FLOAT
    }
  }
  attr {
    key: "_output_shapes"
    value {
      list {
        shape {
          dim {
            size: -1
          }
          dim {
            size: 5
          }
        }
      }
    }
  }
}
node {
  name: "RNN/MultiRNNCell/Cell0/BasicLSTMCell/Sigmoid_2"
  op: "Sigmoid"
  input: "RNN/MultiRNNCell/Cell0/BasicLSTMCell/split:3"
  attr {
    key: "T"
    value {
      type: DT_FLOAT
    }
  }
  attr {
    key: "_output_shapes"
    value {
      list {
        shape {
          dim {
            size: -1
          }
          dim {
            size: 5
          }
        }
      }
    }
  }
}
node {
  name: "RNN/MultiRNNCell/Cell0/BasicLSTMCell/mul_2"
  op: "Mul"
  input: "RNN/MultiRNNCell/Cell0/BasicLSTMCell/Tanh_1"
  input: "RNN/MultiRNNCell/Cell0/BasicLSTMCell/Sigmoid_2"
  attr {
    key: "T"
    value {
      type: DT_FLOAT
    }
  }
  attr {
    key: "_output_shapes"
    value {
      list {
        shape {
          dim {
            size: -1
          }
          dim {
            size: 5
          }
        }
      }
    }
  }
}
node {
  name: "RNN/MultiRNNCell_1/Cell0/BasicLSTMCell/Linear/concat/concat_dim"
  op: "Const"
  attr {
    key: "_output_shapes"
    value {
      list {
        shape {
        }
      }
    }
  }
  attr {
    key: "dtype"
    value {
      type: DT_INT32
    }
  }
  attr {
    key: "value"
    value {
      tensor {
        dtype: DT_INT32
        tensor_shape {
        }
        int_val: 1
      }
    }
  }
}
node {
  name: "RNN/MultiRNNCell_1/Cell0/BasicLSTMCell/Linear/concat"
  op: "Concat"
  input: "RNN/MultiRNNCell_1/Cell0/BasicLSTMCell/Linear/concat/concat_dim"
  input: "unpack:1"
  input: "RNN/MultiRNNCell/Cell0/BasicLSTMCell/mul_2"
  attr {
    key: "N"
    value {
      i: 2
    }
  }
  attr {
    key: "T"
    value {
      type: DT_FLOAT
    }
  }
  attr {
    key: "_output_shapes"
    value {
      list {
        shape {
          dim {
            size: -1
          }
          dim {
            size: 6
          }
        }
      }
    }
  }
}
node {
  name: "RNN/MultiRNNCell_1/Cell0/BasicLSTMCell/Linear/MatMul"
  op: "MatMul"
  input: "RNN/MultiRNNCell_1/Cell0/BasicLSTMCell/Linear/concat"
  input: "RNN/MultiRNNCell/Cell0/BasicLSTMCell/Linear/Matrix/read"
  attr {
    key: "T"
    value {
      type: DT_FLOAT
    }
  }
  attr {
    key: "_output_shapes"
    value {
      list {
        shape {
          dim {
            size: -1
          }
          dim {
            size: 20
          }
        }
      }
    }
  }
  attr {
    key: "transpose_a"
    value {
      b: false
    }
  }
  attr {
    key: "transpose_b"
    value {
      b: false
    }
  }
}
node {
  name: "RNN/MultiRNNCell_1/Cell0/BasicLSTMCell/add"
  op: "Add"
  input: "RNN/MultiRNNCell_1/Cell0/BasicLSTMCell/Linear/MatMul"
  input: "RNN/MultiRNNCell/Cell0/BasicLSTMCell/Linear/Bias/read"
  attr {
    key: "T"
    value {
      type: DT_FLOAT
    }
  }
  attr {
    key: "_output_shapes"
    value {
      list {
        shape {
          dim {
            size: -1
          }
          dim {
            size: 20
          }
        }
      }
    }
  }
}
node {
  name: "RNN/MultiRNNCell_1/Cell0/BasicLSTMCell/split/split_dim"
  op: "Const"
  attr {
    key: "_output_shapes"
    value {
      list {
        shape {
        }
      }
    }
  }
  attr {
    key: "dtype"
    value {
      type: DT_INT32
    }
  }
  attr {
    key: "value"
    value {
      tensor {
        dtype: DT_INT32
        tensor_shape {
        }
        int_val: 1
      }
    }
  }
}
node {
  name: "RNN/MultiRNNCell_1/Cell0/BasicLSTMCell/split"
  op: "Split"
  input: "RNN/MultiRNNCell_1/Cell0/BasicLSTMCell/split/split_dim"
  input: "RNN/MultiRNNCell_1/Cell0/BasicLSTMCell/add"
  attr {
    key: "T"
    value {
      type: DT_FLOAT
    }
  }
  attr {
    key: "_output_shapes"
    value {
      list {
        shape {
          dim {
            size: -1
          }
          dim {
            size: 5
          }
        }
        shape {
          dim {
            size: -1
          }
          dim {
            size: 5
          }
        }
        shape {
          dim {
            size: -1
          }
          dim {
            size: 5
          }
        }
        shape {
          dim {
            size: -1
          }
          dim {
            size: 5
          }
        }
      }
    }
  }
  attr {
    key: "num_split"
    value {
      i: 4
    }
  }
}
node {
  name: "RNN/MultiRNNCell_1/Cell0/BasicLSTMCell/add_1/y"
  op: "Const"
  attr {
    key: "_output_shapes"
    value {
      list {
        shape {
        }
      }
    }
  }
  attr {
    key: "dtype"
    value {
      type: DT_FLOAT
    }
  }
  attr {
    key: "value"
    value {
      tensor {
        dtype: DT_FLOAT
        tensor_shape {
        }
        float_val: 1.0
      }
    }
  }
}
node {
  name: "RNN/MultiRNNCell_1/Cell0/BasicLSTMCell/add_1"
  op: "Add"
  input: "RNN/MultiRNNCell_1/Cell0/BasicLSTMCell/split:2"
  input: "RNN/MultiRNNCell_1/Cell0/BasicLSTMCell/add_1/y"
  attr {
    key: "T"
    value {
      type: DT_FLOAT
    }
  }
  attr {
    key: "_output_shapes"
    value {
      list {
        shape {
          dim {
            size: -1
          }
          dim {
            size: 5
          }
        }
      }
    }
  }
}
node {
  name: "RNN/MultiRNNCell_1/Cell0/BasicLSTMCell/Sigmoid"
  op: "Sigmoid"
  input: "RNN/MultiRNNCell_1/Cell0/BasicLSTMCell/add_1"
  attr {
    key: "T"
    value {
      type: DT_FLOAT
    }
  }
  attr {
    key: "_output_shapes"
    value {
      list {
        shape {
          dim {
            size: -1
          }
          dim {
            size: 5
          }
        }
      }
    }
  }
}
node {
  name: "RNN/MultiRNNCell_1/Cell0/BasicLSTMCell/mul"
  op: "Mul"
  input: "RNN/MultiRNNCell/Cell0/BasicLSTMCell/add_2"
  input: "RNN/MultiRNNCell_1/Cell0/BasicLSTMCell/Sigmoid"
  attr {
    key: "T"
    value {
      type: DT_FLOAT
    }
  }
  attr {
    key: "_output_shapes"
    value {
      list {
        shape {
          dim {
            size: -1
          }
          dim {
            size: 5
          }
        }
      }
    }
  }
}
node {
  name: "RNN/MultiRNNCell_1/Cell0/BasicLSTMCell/Sigmoid_1"
  op: "Sigmoid"
  input: "RNN/MultiRNNCell_1/Cell0/BasicLSTMCell/split"
  attr {
    key: "T"
    value {
      type: DT_FLOAT
    }
  }
  attr {
    key: "_output_shapes"
    value {
      list {
        shape {
          dim {
            size: -1
          }
          dim {
            size: 5
          }
        }
      }
    }
  }
}
node {
  name: "RNN/MultiRNNCell_1/Cell0/BasicLSTMCell/Tanh"
  op: "Tanh"
  input: "RNN/MultiRNNCell_1/Cell0/BasicLSTMCell/split:1"
  attr {
    key: "T"
    value {
      type: DT_FLOAT
    }
  }
  attr {
    key: "_output_shapes"
    value {
      list {
        shape {
          dim {
            size: -1
          }
          dim {
            size: 5
          }
        }
      }
    }
  }
}
node {
  name: "RNN/MultiRNNCell_1/Cell0/BasicLSTMCell/mul_1"
  op: "Mul"
  input: "RNN/MultiRNNCell_1/Cell0/BasicLSTMCell/Sigmoid_1"
  input: "RNN/MultiRNNCell_1/Cell0/BasicLSTMCell/Tanh"
  attr {
    key: "T"
    value {
      type: DT_FLOAT
    }
  }
  attr {
    key: "_output_shapes"
    value {
      list {
        shape {
          dim {
            size: -1
          }
          dim {
            size: 5
          }
        }
      }
    }
  }
}
node {
  name: "RNN/MultiRNNCell_1/Cell0/BasicLSTMCell/add_2"
  op: "Add"
  input: "RNN/MultiRNNCell_1/Cell0/BasicLSTMCell/mul"
  input: "RNN/MultiRNNCell_1/Cell0/BasicLSTMCell/mul_1"
  attr {
    key: "T"
    value {
      type: DT_FLOAT
    }
  }
  attr {
    key: "_output_shapes"
    value {
      list {
        shape {
          dim {
            size: -1
          }
          dim {
            size: 5
          }
        }
      }
    }
  }
}
node {
  name: "RNN/MultiRNNCell_1/Cell0/BasicLSTMCell/Tanh_1"
  op: "Tanh"
  input: "RNN/MultiRNNCell_1/Cell0/BasicLSTMCell/add_2"
  attr {
    key: "T"
    value {
      type: DT_FLOAT
    }
  }
  attr {
    key: "_output_shapes"
    value {
      list {
        shape {
          dim {
            size: -1
          }
          dim {
            size: 5
          }
        }
      }
    }
  }
}
node {
  name: "RNN/MultiRNNCell_1/Cell0/BasicLSTMCell/Sigmoid_2"
  op: "Sigmoid"
  input: "RNN/MultiRNNCell_1/Cell0/BasicLSTMCell/split:3"
  attr {
    key: "T"
    value {
      type: DT_FLOAT
    }
  }
  attr {
    key: "_output_shapes"
    value {
      list {
        shape {
          dim {
            size: -1
          }
          dim {
            size: 5
          }
        }
      }
    }
  }
}
node {
  name: "RNN/MultiRNNCell_1/Cell0/BasicLSTMCell/mul_2"
  op: "Mul"
  input: "RNN/MultiRNNCell_1/Cell0/BasicLSTMCell/Tanh_1"
  input: "RNN/MultiRNNCell_1/Cell0/BasicLSTMCell/Sigmoid_2"
  attr {
    key: "T"
    value {
      type: DT_FLOAT
    }
  }
  attr {
    key: "_output_shapes"
    value {
      list {
        shape {
          dim {
            size: -1
          }
          dim {
            size: 5
          }
        }
      }
    }
  }
}
node {
  name: "RNN/MultiRNNCell_2/Cell0/BasicLSTMCell/Linear/concat/concat_dim"
  op: "Const"
  attr {
    key: "_output_shapes"
    value {
      list {
        shape {
        }
      }
    }
  }
  attr {
    key: "dtype"
    value {
      type: DT_INT32
    }
  }
  attr {
    key: "value"
    value {
      tensor {
        dtype: DT_INT32
        tensor_shape {
        }
        int_val: 1
      }
    }
  }
}
node {
  name: "RNN/MultiRNNCell_2/Cell0/BasicLSTMCell/Linear/concat"
  op: "Concat"
  input: "RNN/MultiRNNCell_2/Cell0/BasicLSTMCell/Linear/concat/concat_dim"
  input: "unpack:2"
  input: "RNN/MultiRNNCell_1/Cell0/BasicLSTMCell/mul_2"
  attr {
    key: "N"
    value {
      i: 2
    }
  }
  attr {
    key: "T"
    value {
      type: DT_FLOAT
    }
  }
  attr {
    key: "_output_shapes"
    value {
      list {
        shape {
          dim {
            size: -1
          }
          dim {
            size: 6
          }
        }
      }
    }
  }
}
node {
  name: "RNN/MultiRNNCell_2/Cell0/BasicLSTMCell/Linear/MatMul"
  op: "MatMul"
  input: "RNN/MultiRNNCell_2/Cell0/BasicLSTMCell/Linear/concat"
  input: "RNN/MultiRNNCell/Cell0/BasicLSTMCell/Linear/Matrix/read"
  attr {
    key: "T"
    value {
      type: DT_FLOAT
    }
  }
  attr {
    key: "_output_shapes"
    value {
      list {
        shape {
          dim {
            size: -1
          }
          dim {
            size: 20
          }
        }
      }
    }
  }
  attr {
    key: "transpose_a"
    value {
      b: false
    }
  }
  attr {
    key: "transpose_b"
    value {
      b: false
    }
  }
}
node {
  name: "RNN/MultiRNNCell_2/Cell0/BasicLSTMCell/add"
  op: "Add"
  input: "RNN/MultiRNNCell_2/Cell0/BasicLSTMCell/Linear/MatMul"
  input: "RNN/MultiRNNCell/Cell0/BasicLSTMCell/Linear/Bias/read"
  attr {
    key: "T"
    value {
      type: DT_FLOAT
    }
  }
  attr {
    key: "_output_shapes"
    value {
      list {
        shape {
          dim {
            size: -1
          }
          dim {
            size: 20
          }
        }
      }
    }
  }
}
node {
  name: "RNN/MultiRNNCell_2/Cell0/BasicLSTMCell/split/split_dim"
  op: "Const"
  attr {
    key: "_output_shapes"
    value {
      list {
        shape {
        }
      }
    }
  }
  attr {
    key: "dtype"
    value {
      type: DT_INT32
    }
  }
  attr {
    key: "value"
    value {
      tensor {
        dtype: DT_INT32
        tensor_shape {
        }
        int_val: 1
      }
    }
  }
}
node {
  name: "RNN/MultiRNNCell_2/Cell0/BasicLSTMCell/split"
  op: "Split"
  input: "RNN/MultiRNNCell_2/Cell0/BasicLSTMCell/split/split_dim"
  input: "RNN/MultiRNNCell_2/Cell0/BasicLSTMCell/add"
  attr {
    key: "T"
    value {
      type: DT_FLOAT
    }
  }
  attr {
    key: "_output_shapes"
    value {
      list {
        shape {
          dim {
            size: -1
          }
          dim {
            size: 5
          }
        }
        shape {
          dim {
            size: -1
          }
          dim {
            size: 5
          }
        }
        shape {
          dim {
            size: -1
          }
          dim {
            size: 5
          }
        }
        shape {
          dim {
            size: -1
          }
          dim {
            size: 5
          }
        }
      }
    }
  }
  attr {
    key: "num_split"
    value {
      i: 4
    }
  }
}
node {
  name: "RNN/MultiRNNCell_2/Cell0/BasicLSTMCell/add_1/y"
  op: "Const"
  attr {
    key: "_output_shapes"
    value {
      list {
        shape {
        }
      }
    }
  }
  attr {
    key: "dtype"
    value {
      type: DT_FLOAT
    }
  }
  attr {
    key: "value"
    value {
      tensor {
        dtype: DT_FLOAT
        tensor_shape {
        }
        float_val: 1.0
      }
    }
  }
}
node {
  name: "RNN/MultiRNNCell_2/Cell0/BasicLSTMCell/add_1"
  op: "Add"
  input: "RNN/MultiRNNCell_2/Cell0/BasicLSTMCell/split:2"
  input: "RNN/MultiRNNCell_2/Cell0/BasicLSTMCell/add_1/y"
  attr {
    key: "T"
    value {
      type: DT_FLOAT
    }
  }
  attr {
    key: "_output_shapes"
    value {
      list {
        shape {
          dim {
            size: -1
          }
          dim {
            size: 5
          }
        }
      }
    }
  }
}
node {
  name: "RNN/MultiRNNCell_2/Cell0/BasicLSTMCell/Sigmoid"
  op: "Sigmoid"
  input: "RNN/MultiRNNCell_2/Cell0/BasicLSTMCell/add_1"
  attr {
    key: "T"
    value {
      type: DT_FLOAT
    }
  }
  attr {
    key: "_output_shapes"
    value {
      list {
        shape {
          dim {
            size: -1
          }
          dim {
            size: 5
          }
        }
      }
    }
  }
}
node {
  name: "RNN/MultiRNNCell_2/Cell0/BasicLSTMCell/mul"
  op: "Mul"
  input: "RNN/MultiRNNCell_1/Cell0/BasicLSTMCell/add_2"
  input: "RNN/MultiRNNCell_2/Cell0/BasicLSTMCell/Sigmoid"
  attr {
    key: "T"
    value {
      type: DT_FLOAT
    }
  }
  attr {
    key: "_output_shapes"
    value {
      list {
        shape {
          dim {
            size: -1
          }
          dim {
            size: 5
          }
        }
      }
    }
  }
}
node {
  name: "RNN/MultiRNNCell_2/Cell0/BasicLSTMCell/Sigmoid_1"
  op: "Sigmoid"
  input: "RNN/MultiRNNCell_2/Cell0/BasicLSTMCell/split"
  attr {
    key: "T"
    value {
      type: DT_FLOAT
    }
  }
  attr {
    key: "_output_shapes"
    value {
      list {
        shape {
          dim {
            size: -1
          }
          dim {
            size: 5
          }
        }
      }
    }
  }
}
node {
  name: "RNN/MultiRNNCell_2/Cell0/BasicLSTMCell/Tanh"
  op: "Tanh"
  input: "RNN/MultiRNNCell_2/Cell0/BasicLSTMCell/split:1"
  attr {
    key: "T"
    value {
      type: DT_FLOAT
    }
  }
  attr {
    key: "_output_shapes"
    value {
      list {
        shape {
          dim {
            size: -1
          }
          dim {
            size: 5
          }
        }
      }
    }
  }
}
node {
  name: "RNN/MultiRNNCell_2/Cell0/BasicLSTMCell/mul_1"
  op: "Mul"
  input: "RNN/MultiRNNCell_2/Cell0/BasicLSTMCell/Sigmoid_1"
  input: "RNN/MultiRNNCell_2/Cell0/BasicLSTMCell/Tanh"
  attr {
    key: "T"
    value {
      type: DT_FLOAT
    }
  }
  attr {
    key: "_output_shapes"
    value {
      list {
        shape {
          dim {
            size: -1
          }
          dim {
            size: 5
          }
        }
      }
    }
  }
}
node {
  name: "RNN/MultiRNNCell_2/Cell0/BasicLSTMCell/add_2"
  op: "Add"
  input: "RNN/MultiRNNCell_2/Cell0/BasicLSTMCell/mul"
  input: "RNN/MultiRNNCell_2/Cell0/BasicLSTMCell/mul_1"
  attr {
    key: "T"
    value {
      type: DT_FLOAT
    }
  }
  attr {
    key: "_output_shapes"
    value {
      list {
        shape {
          dim {
            size: -1
          }
          dim {
            size: 5
          }
        }
      }
    }
  }
}
node {
  name: "RNN/MultiRNNCell_2/Cell0/BasicLSTMCell/Tanh_1"
  op: "Tanh"
  input: "RNN/MultiRNNCell_2/Cell0/BasicLSTMCell/add_2"
  attr {
    key: "T"
    value {
      type: DT_FLOAT
    }
  }
  attr {
    key: "_output_shapes"
    value {
      list {
        shape {
          dim {
            size: -1
          }
          dim {
            size: 5
          }
        }
      }
    }
  }
}
node {
  name: "RNN/MultiRNNCell_2/Cell0/BasicLSTMCell/Sigmoid_2"
  op: "Sigmoid"
  input: "RNN/MultiRNNCell_2/Cell0/BasicLSTMCell/split:3"
  attr {
    key: "T"
    value {
      type: DT_FLOAT
    }
  }
  attr {
    key: "_output_shapes"
    value {
      list {
        shape {
          dim {
            size: -1
          }
          dim {
            size: 5
          }
        }
      }
    }
  }
}
node {
  name: "RNN/MultiRNNCell_2/Cell0/BasicLSTMCell/mul_2"
  op: "Mul"
  input: "RNN/MultiRNNCell_2/Cell0/BasicLSTMCell/Tanh_1"
  input: "RNN/MultiRNNCell_2/Cell0/BasicLSTMCell/Sigmoid_2"
  attr {
    key: "T"
    value {
      type: DT_FLOAT
    }
  }
  attr {
    key: "_output_shapes"
    value {
      list {
        shape {
          dim {
            size: -1
          }
          dim {
            size: 5
          }
        }
      }
    }
  }
}
node {
  name: "RNN/MultiRNNCell_3/Cell0/BasicLSTMCell/Linear/concat/concat_dim"
  op: "Const"
  attr {
    key: "_output_shapes"
    value {
      list {
        shape {
        }
      }
    }
  }
  attr {
    key: "dtype"
    value {
      type: DT_INT32
    }
  }
  attr {
    key: "value"
    value {
      tensor {
        dtype: DT_INT32
        tensor_shape {
        }
        int_val: 1
      }
    }
  }
}
node {
  name: "RNN/MultiRNNCell_3/Cell0/BasicLSTMCell/Linear/concat"
  op: "Concat"
  input: "RNN/MultiRNNCell_3/Cell0/BasicLSTMCell/Linear/concat/concat_dim"
  input: "unpack:3"
  input: "RNN/MultiRNNCell_2/Cell0/BasicLSTMCell/mul_2"
  attr {
    key: "N"
    value {
      i: 2
    }
  }
  attr {
    key: "T"
    value {
      type: DT_FLOAT
    }
  }
  attr {
    key: "_output_shapes"
    value {
      list {
        shape {
          dim {
            size: -1
          }
          dim {
            size: 6
          }
        }
      }
    }
  }
}
node {
  name: "RNN/MultiRNNCell_3/Cell0/BasicLSTMCell/Linear/MatMul"
  op: "MatMul"
  input: "RNN/MultiRNNCell_3/Cell0/BasicLSTMCell/Linear/concat"
  input: "RNN/MultiRNNCell/Cell0/BasicLSTMCell/Linear/Matrix/read"
  attr {
    key: "T"
    value {
      type: DT_FLOAT
    }
  }
  attr {
    key: "_output_shapes"
    value {
      list {
        shape {
          dim {
            size: -1
          }
          dim {
            size: 20
          }
        }
      }
    }
  }
  attr {
    key: "transpose_a"
    value {
      b: false
    }
  }
  attr {
    key: "transpose_b"
    value {
      b: false
    }
  }
}
node {
  name: "RNN/MultiRNNCell_3/Cell0/BasicLSTMCell/add"
  op: "Add"
  input: "RNN/MultiRNNCell_3/Cell0/BasicLSTMCell/Linear/MatMul"
  input: "RNN/MultiRNNCell/Cell0/BasicLSTMCell/Linear/Bias/read"
  attr {
    key: "T"
    value {
      type: DT_FLOAT
    }
  }
  attr {
    key: "_output_shapes"
    value {
      list {
        shape {
          dim {
            size: -1
          }
          dim {
            size: 20
          }
        }
      }
    }
  }
}
node {
  name: "RNN/MultiRNNCell_3/Cell0/BasicLSTMCell/split/split_dim"
  op: "Const"
  attr {
    key: "_output_shapes"
    value {
      list {
        shape {
        }
      }
    }
  }
  attr {
    key: "dtype"
    value {
      type: DT_INT32
    }
  }
  attr {
    key: "value"
    value {
      tensor {
        dtype: DT_INT32
        tensor_shape {
        }
        int_val: 1
      }
    }
  }
}
node {
  name: "RNN/MultiRNNCell_3/Cell0/BasicLSTMCell/split"
  op: "Split"
  input: "RNN/MultiRNNCell_3/Cell0/BasicLSTMCell/split/split_dim"
  input: "RNN/MultiRNNCell_3/Cell0/BasicLSTMCell/add"
  attr {
    key: "T"
    value {
      type: DT_FLOAT
    }
  }
  attr {
    key: "_output_shapes"
    value {
      list {
        shape {
          dim {
            size: -1
          }
          dim {
            size: 5
          }
        }
        shape {
          dim {
            size: -1
          }
          dim {
            size: 5
          }
        }
        shape {
          dim {
            size: -1
          }
          dim {
            size: 5
          }
        }
        shape {
          dim {
            size: -1
          }
          dim {
            size: 5
          }
        }
      }
    }
  }
  attr {
    key: "num_split"
    value {
      i: 4
    }
  }
}
node {
  name: "RNN/MultiRNNCell_3/Cell0/BasicLSTMCell/add_1/y"
  op: "Const"
  attr {
    key: "_output_shapes"
    value {
      list {
        shape {
        }
      }
    }
  }
  attr {
    key: "dtype"
    value {
      type: DT_FLOAT
    }
  }
  attr {
    key: "value"
    value {
      tensor {
        dtype: DT_FLOAT
        tensor_shape {
        }
        float_val: 1.0
      }
    }
  }
}
node {
  name: "RNN/MultiRNNCell_3/Cell0/BasicLSTMCell/add_1"
  op: "Add"
  input: "RNN/MultiRNNCell_3/Cell0/BasicLSTMCell/split:2"
  input: "RNN/MultiRNNCell_3/Cell0/BasicLSTMCell/add_1/y"
  attr {
    key: "T"
    value {
      type: DT_FLOAT
    }
  }
  attr {
    key: "_output_shapes"
    value {
      list {
        shape {
          dim {
            size: -1
          }
          dim {
            size: 5
          }
        }
      }
    }
  }
}
node {
  name: "RNN/MultiRNNCell_3/Cell0/BasicLSTMCell/Sigmoid"
  op: "Sigmoid"
  input: "RNN/MultiRNNCell_3/Cell0/BasicLSTMCell/add_1"
  attr {
    key: "T"
    value {
      type: DT_FLOAT
    }
  }
  attr {
    key: "_output_shapes"
    value {
      list {
        shape {
          dim {
            size: -1
          }
          dim {
            size: 5
          }
        }
      }
    }
  }
}
node {
  name: "RNN/MultiRNNCell_3/Cell0/BasicLSTMCell/mul"
  op: "Mul"
  input: "RNN/MultiRNNCell_2/Cell0/BasicLSTMCell/add_2"
  input: "RNN/MultiRNNCell_3/Cell0/BasicLSTMCell/Sigmoid"
  attr {
    key: "T"
    value {
      type: DT_FLOAT
    }
  }
  attr {
    key: "_output_shapes"
    value {
      list {
        shape {
          dim {
            size: -1
          }
          dim {
            size: 5
          }
        }
      }
    }
  }
}
node {
  name: "RNN/MultiRNNCell_3/Cell0/BasicLSTMCell/Sigmoid_1"
  op: "Sigmoid"
  input: "RNN/MultiRNNCell_3/Cell0/BasicLSTMCell/split"
  attr {
    key: "T"
    value {
      type: DT_FLOAT
    }
  }
  attr {
    key: "_output_shapes"
    value {
      list {
        shape {
          dim {
            size: -1
          }
          dim {
            size: 5
          }
        }
      }
    }
  }
}
node {
  name: "RNN/MultiRNNCell_3/Cell0/BasicLSTMCell/Tanh"
  op: "Tanh"
  input: "RNN/MultiRNNCell_3/Cell0/BasicLSTMCell/split:1"
  attr {
    key: "T"
    value {
      type: DT_FLOAT
    }
  }
  attr {
    key: "_output_shapes"
    value {
      list {
        shape {
          dim {
            size: -1
          }
          dim {
            size: 5
          }
        }
      }
    }
  }
}
node {
  name: "RNN/MultiRNNCell_3/Cell0/BasicLSTMCell/mul_1"
  op: "Mul"
  input: "RNN/MultiRNNCell_3/Cell0/BasicLSTMCell/Sigmoid_1"
  input: "RNN/MultiRNNCell_3/Cell0/BasicLSTMCell/Tanh"
  attr {
    key: "T"
    value {
      type: DT_FLOAT
    }
  }
  attr {
    key: "_output_shapes"
    value {
      list {
        shape {
          dim {
            size: -1
          }
          dim {
            size: 5
          }
        }
      }
    }
  }
}
node {
  name: "RNN/MultiRNNCell_3/Cell0/BasicLSTMCell/add_2"
  op: "Add"
  input: "RNN/MultiRNNCell_3/Cell0/BasicLSTMCell/mul"
  input: "RNN/MultiRNNCell_3/Cell0/BasicLSTMCell/mul_1"
  attr {
    key: "T"
    value {
      type: DT_FLOAT
    }
  }
  attr {
    key: "_output_shapes"
    value {
      list {
        shape {
          dim {
            size: -1
          }
          dim {
            size: 5
          }
        }
      }
    }
  }
}
node {
  name: "RNN/MultiRNNCell_3/Cell0/BasicLSTMCell/Tanh_1"
  op: "Tanh"
  input: "RNN/MultiRNNCell_3/Cell0/BasicLSTMCell/add_2"
  attr {
    key: "T"
    value {
      type: DT_FLOAT
    }
  }
  attr {
    key: "_output_shapes"
    value {
      list {
        shape {
          dim {
            size: -1
          }
          dim {
            size: 5
          }
        }
      }
    }
  }
}
node {
  name: "RNN/MultiRNNCell_3/Cell0/BasicLSTMCell/Sigmoid_2"
  op: "Sigmoid"
  input: "RNN/MultiRNNCell_3/Cell0/BasicLSTMCell/split:3"
  attr {
    key: "T"
    value {
      type: DT_FLOAT
    }
  }
  attr {
    key: "_output_shapes"
    value {
      list {
        shape {
          dim {
            size: -1
          }
          dim {
            size: 5
          }
        }
      }
    }
  }
}
node {
  name: "RNN/MultiRNNCell_3/Cell0/BasicLSTMCell/mul_2"
  op: "Mul"
  input: "RNN/MultiRNNCell_3/Cell0/BasicLSTMCell/Tanh_1"
  input: "RNN/MultiRNNCell_3/Cell0/BasicLSTMCell/Sigmoid_2"
  attr {
    key: "T"
    value {
      type: DT_FLOAT
    }
  }
  attr {
    key: "_output_shapes"
    value {
      list {
        shape {
          dim {
            size: -1
          }
          dim {
            size: 5
          }
        }
      }
    }
  }
}
node {
  name: "RNN/MultiRNNCell_4/Cell0/BasicLSTMCell/Linear/concat/concat_dim"
  op: "Const"
  attr {
    key: "_output_shapes"
    value {
      list {
        shape {
        }
      }
    }
  }
  attr {
    key: "dtype"
    value {
      type: DT_INT32
    }
  }
  attr {
    key: "value"
    value {
      tensor {
        dtype: DT_INT32
        tensor_shape {
        }
        int_val: 1
      }
    }
  }
}
node {
  name: "RNN/MultiRNNCell_4/Cell0/BasicLSTMCell/Linear/concat"
  op: "Concat"
  input: "RNN/MultiRNNCell_4/Cell0/BasicLSTMCell/Linear/concat/concat_dim"
  input: "unpack:4"
  input: "RNN/MultiRNNCell_3/Cell0/BasicLSTMCell/mul_2"
  attr {
    key: "N"
    value {
      i: 2
    }
  }
  attr {
    key: "T"
    value {
      type: DT_FLOAT
    }
  }
  attr {
    key: "_output_shapes"
    value {
      list {
        shape {
          dim {
            size: -1
          }
          dim {
            size: 6
          }
        }
      }
    }
  }
}
node {
  name: "RNN/MultiRNNCell_4/Cell0/BasicLSTMCell/Linear/MatMul"
  op: "MatMul"
  input: "RNN/MultiRNNCell_4/Cell0/BasicLSTMCell/Linear/concat"
  input: "RNN/MultiRNNCell/Cell0/BasicLSTMCell/Linear/Matrix/read"
  attr {
    key: "T"
    value {
      type: DT_FLOAT
    }
  }
  attr {
    key: "_output_shapes"
    value {
      list {
        shape {
          dim {
            size: -1
          }
          dim {
            size: 20
          }
        }
      }
    }
  }
  attr {
    key: "transpose_a"
    value {
      b: false
    }
  }
  attr {
    key: "transpose_b"
    value {
      b: false
    }
  }
}
node {
  name: "RNN/MultiRNNCell_4/Cell0/BasicLSTMCell/add"
  op: "Add"
  input: "RNN/MultiRNNCell_4/Cell0/BasicLSTMCell/Linear/MatMul"
  input: "RNN/MultiRNNCell/Cell0/BasicLSTMCell/Linear/Bias/read"
  attr {
    key: "T"
    value {
      type: DT_FLOAT
    }
  }
  attr {
    key: "_output_shapes"
    value {
      list {
        shape {
          dim {
            size: -1
          }
          dim {
            size: 20
          }
        }
      }
    }
  }
}
node {
  name: "RNN/MultiRNNCell_4/Cell0/BasicLSTMCell/split/split_dim"
  op: "Const"
  attr {
    key: "_output_shapes"
    value {
      list {
        shape {
        }
      }
    }
  }
  attr {
    key: "dtype"
    value {
      type: DT_INT32
    }
  }
  attr {
    key: "value"
    value {
      tensor {
        dtype: DT_INT32
        tensor_shape {
        }
        int_val: 1
      }
    }
  }
}
node {
  name: "RNN/MultiRNNCell_4/Cell0/BasicLSTMCell/split"
  op: "Split"
  input: "RNN/MultiRNNCell_4/Cell0/BasicLSTMCell/split/split_dim"
  input: "RNN/MultiRNNCell_4/Cell0/BasicLSTMCell/add"
  attr {
    key: "T"
    value {
      type: DT_FLOAT
    }
  }
  attr {
    key: "_output_shapes"
    value {
      list {
        shape {
          dim {
            size: -1
          }
          dim {
            size: 5
          }
        }
        shape {
          dim {
            size: -1
          }
          dim {
            size: 5
          }
        }
        shape {
          dim {
            size: -1
          }
          dim {
            size: 5
          }
        }
        shape {
          dim {
            size: -1
          }
          dim {
            size: 5
          }
        }
      }
    }
  }
  attr {
    key: "num_split"
    value {
      i: 4
    }
  }
}
node {
  name: "RNN/MultiRNNCell_4/Cell0/BasicLSTMCell/add_1/y"
  op: "Const"
  attr {
    key: "_output_shapes"
    value {
      list {
        shape {
        }
      }
    }
  }
  attr {
    key: "dtype"
    value {
      type: DT_FLOAT
    }
  }
  attr {
    key: "value"
    value {
      tensor {
        dtype: DT_FLOAT
        tensor_shape {
        }
        float_val: 1.0
      }
    }
  }
}
node {
  name: "RNN/MultiRNNCell_4/Cell0/BasicLSTMCell/add_1"
  op: "Add"
  input: "RNN/MultiRNNCell_4/Cell0/BasicLSTMCell/split:2"
  input: "RNN/MultiRNNCell_4/Cell0/BasicLSTMCell/add_1/y"
  attr {
    key: "T"
    value {
      type: DT_FLOAT
    }
  }
  attr {
    key: "_output_shapes"
    value {
      list {
        shape {
          dim {
            size: -1
          }
          dim {
            size: 5
          }
        }
      }
    }
  }
}
node {
  name: "RNN/MultiRNNCell_4/Cell0/BasicLSTMCell/Sigmoid"
  op: "Sigmoid"
  input: "RNN/MultiRNNCell_4/Cell0/BasicLSTMCell/add_1"
  attr {
    key: "T"
    value {
      type: DT_FLOAT
    }
  }
  attr {
    key: "_output_shapes"
    value {
      list {
        shape {
          dim {
            size: -1
          }
          dim {
            size: 5
          }
        }
      }
    }
  }
}
node {
  name: "RNN/MultiRNNCell_4/Cell0/BasicLSTMCell/mul"
  op: "Mul"
  input: "RNN/MultiRNNCell_3/Cell0/BasicLSTMCell/add_2"
  input: "RNN/MultiRNNCell_4/Cell0/BasicLSTMCell/Sigmoid"
  attr {
    key: "T"
    value {
      type: DT_FLOAT
    }
  }
  attr {
    key: "_output_shapes"
    value {
      list {
        shape {
          dim {
            size: -1
          }
          dim {
            size: 5
          }
        }
      }
    }
  }
}
node {
  name: "RNN/MultiRNNCell_4/Cell0/BasicLSTMCell/Sigmoid_1"
  op: "Sigmoid"
  input: "RNN/MultiRNNCell_4/Cell0/BasicLSTMCell/split"
  attr {
    key: "T"
    value {
      type: DT_FLOAT
    }
  }
  attr {
    key: "_output_shapes"
    value {
      list {
        shape {
          dim {
            size: -1
          }
          dim {
            size: 5
          }
        }
      }
    }
  }
}
node {
  name: "RNN/MultiRNNCell_4/Cell0/BasicLSTMCell/Tanh"
  op: "Tanh"
  input: "RNN/MultiRNNCell_4/Cell0/BasicLSTMCell/split:1"
  attr {
    key: "T"
    value {
      type: DT_FLOAT
    }
  }
  attr {
    key: "_output_shapes"
    value {
      list {
        shape {
          dim {
            size: -1
          }
          dim {
            size: 5
          }
        }
      }
    }
  }
}
node {
  name: "RNN/MultiRNNCell_4/Cell0/BasicLSTMCell/mul_1"
  op: "Mul"
  input: "RNN/MultiRNNCell_4/Cell0/BasicLSTMCell/Sigmoid_1"
  input: "RNN/MultiRNNCell_4/Cell0/BasicLSTMCell/Tanh"
  attr {
    key: "T"
    value {
      type: DT_FLOAT
    }
  }
  attr {
    key: "_output_shapes"
    value {
      list {
        shape {
          dim {
            size: -1
          }
          dim {
            size: 5
          }
        }
      }
    }
  }
}
node {
  name: "RNN/MultiRNNCell_4/Cell0/BasicLSTMCell/add_2"
  op: "Add"
  input: "RNN/MultiRNNCell_4/Cell0/BasicLSTMCell/mul"
  input: "RNN/MultiRNNCell_4/Cell0/BasicLSTMCell/mul_1"
  attr {
    key: "T"
    value {
      type: DT_FLOAT
    }
  }
  attr {
    key: "_output_shapes"
    value {
      list {
        shape {
          dim {
            size: -1
          }
          dim {
            size: 5
          }
        }
      }
    }
  }
}
node {
  name: "RNN/MultiRNNCell_4/Cell0/BasicLSTMCell/Tanh_1"
  op: "Tanh"
  input: "RNN/MultiRNNCell_4/Cell0/BasicLSTMCell/add_2"
  attr {
    key: "T"
    value {
      type: DT_FLOAT
    }
  }
  attr {
    key: "_output_shapes"
    value {
      list {
        shape {
          dim {
            size: -1
          }
          dim {
            size: 5
          }
        }
      }
    }
  }
}
node {
  name: "RNN/MultiRNNCell_4/Cell0/BasicLSTMCell/Sigmoid_2"
  op: "Sigmoid"
  input: "RNN/MultiRNNCell_4/Cell0/BasicLSTMCell/split:3"
  attr {
    key: "T"
    value {
      type: DT_FLOAT
    }
  }
  attr {
    key: "_output_shapes"
    value {
      list {
        shape {
          dim {
            size: -1
          }
          dim {
            size: 5
          }
        }
      }
    }
  }
}
node {
  name: "RNN/MultiRNNCell_4/Cell0/BasicLSTMCell/mul_2"
  op: "Mul"
  input: "RNN/MultiRNNCell_4/Cell0/BasicLSTMCell/Tanh_1"
  input: "RNN/MultiRNNCell_4/Cell0/BasicLSTMCell/Sigmoid_2"
  attr {
    key: "T"
    value {
      type: DT_FLOAT
    }
  }
  attr {
    key: "_output_shapes"
    value {
      list {
        shape {
          dim {
            size: -1
          }
          dim {
            size: 5
          }
        }
      }
    }
  }
}
node {
  name: "RNN/MultiRNNCell_5/Cell0/BasicLSTMCell/Linear/concat/concat_dim"
  op: "Const"
  attr {
    key: "_output_shapes"
    value {
      list {
        shape {
        }
      }
    }
  }
  attr {
    key: "dtype"
    value {
      type: DT_INT32
    }
  }
  attr {
    key: "value"
    value {
      tensor {
        dtype: DT_INT32
        tensor_shape {
        }
        int_val: 1
      }
    }
  }
}
node {
  name: "RNN/MultiRNNCell_5/Cell0/BasicLSTMCell/Linear/concat"
  op: "Concat"
  input: "RNN/MultiRNNCell_5/Cell0/BasicLSTMCell/Linear/concat/concat_dim"
  input: "unpack:5"
  input: "RNN/MultiRNNCell_4/Cell0/BasicLSTMCell/mul_2"
  attr {
    key: "N"
    value {
      i: 2
    }
  }
  attr {
    key: "T"
    value {
      type: DT_FLOAT
    }
  }
  attr {
    key: "_output_shapes"
    value {
      list {
        shape {
          dim {
            size: -1
          }
          dim {
            size: 6
          }
        }
      }
    }
  }
}
node {
  name: "RNN/MultiRNNCell_5/Cell0/BasicLSTMCell/Linear/MatMul"
  op: "MatMul"
  input: "RNN/MultiRNNCell_5/Cell0/BasicLSTMCell/Linear/concat"
  input: "RNN/MultiRNNCell/Cell0/BasicLSTMCell/Linear/Matrix/read"
  attr {
    key: "T"
    value {
      type: DT_FLOAT
    }
  }
  attr {
    key: "_output_shapes"
    value {
      list {
        shape {
          dim {
            size: -1
          }
          dim {
            size: 20
          }
        }
      }
    }
  }
  attr {
    key: "transpose_a"
    value {
      b: false
    }
  }
  attr {
    key: "transpose_b"
    value {
      b: false
    }
  }
}
node {
  name: "RNN/MultiRNNCell_5/Cell0/BasicLSTMCell/add"
  op: "Add"
  input: "RNN/MultiRNNCell_5/Cell0/BasicLSTMCell/Linear/MatMul"
  input: "RNN/MultiRNNCell/Cell0/BasicLSTMCell/Linear/Bias/read"
  attr {
    key: "T"
    value {
      type: DT_FLOAT
    }
  }
  attr {
    key: "_output_shapes"
    value {
      list {
        shape {
          dim {
            size: -1
          }
          dim {
            size: 20
          }
        }
      }
    }
  }
}
node {
  name: "RNN/MultiRNNCell_5/Cell0/BasicLSTMCell/split/split_dim"
  op: "Const"
  attr {
    key: "_output_shapes"
    value {
      list {
        shape {
        }
      }
    }
  }
  attr {
    key: "dtype"
    value {
      type: DT_INT32
    }
  }
  attr {
    key: "value"
    value {
      tensor {
        dtype: DT_INT32
        tensor_shape {
        }
        int_val: 1
      }
    }
  }
}
node {
  name: "RNN/MultiRNNCell_5/Cell0/BasicLSTMCell/split"
  op: "Split"
  input: "RNN/MultiRNNCell_5/Cell0/BasicLSTMCell/split/split_dim"
  input: "RNN/MultiRNNCell_5/Cell0/BasicLSTMCell/add"
  attr {
    key: "T"
    value {
      type: DT_FLOAT
    }
  }
  attr {
    key: "_output_shapes"
    value {
      list {
        shape {
          dim {
            size: -1
          }
          dim {
            size: 5
          }
        }
        shape {
          dim {
            size: -1
          }
          dim {
            size: 5
          }
        }
        shape {
          dim {
            size: -1
          }
          dim {
            size: 5
          }
        }
        shape {
          dim {
            size: -1
          }
          dim {
            size: 5
          }
        }
      }
    }
  }
  attr {
    key: "num_split"
    value {
      i: 4
    }
  }
}
node {
  name: "RNN/MultiRNNCell_5/Cell0/BasicLSTMCell/add_1/y"
  op: "Const"
  attr {
    key: "_output_shapes"
    value {
      list {
        shape {
        }
      }
    }
  }
  attr {
    key: "dtype"
    value {
      type: DT_FLOAT
    }
  }
  attr {
    key: "value"
    value {
      tensor {
        dtype: DT_FLOAT
        tensor_shape {
        }
        float_val: 1.0
      }
    }
  }
}
node {
  name: "RNN/MultiRNNCell_5/Cell0/BasicLSTMCell/add_1"
  op: "Add"
  input: "RNN/MultiRNNCell_5/Cell0/BasicLSTMCell/split:2"
  input: "RNN/MultiRNNCell_5/Cell0/BasicLSTMCell/add_1/y"
  attr {
    key: "T"
    value {
      type: DT_FLOAT
    }
  }
  attr {
    key: "_output_shapes"
    value {
      list {
        shape {
          dim {
            size: -1
          }
          dim {
            size: 5
          }
        }
      }
    }
  }
}
node {
  name: "RNN/MultiRNNCell_5/Cell0/BasicLSTMCell/Sigmoid"
  op: "Sigmoid"
  input: "RNN/MultiRNNCell_5/Cell0/BasicLSTMCell/add_1"
  attr {
    key: "T"
    value {
      type: DT_FLOAT
    }
  }
  attr {
    key: "_output_shapes"
    value {
      list {
        shape {
          dim {
            size: -1
          }
          dim {
            size: 5
          }
        }
      }
    }
  }
}
node {
  name: "RNN/MultiRNNCell_5/Cell0/BasicLSTMCell/mul"
  op: "Mul"
  input: "RNN/MultiRNNCell_4/Cell0/BasicLSTMCell/add_2"
  input: "RNN/MultiRNNCell_5/Cell0/BasicLSTMCell/Sigmoid"
  attr {
    key: "T"
    value {
      type: DT_FLOAT
    }
  }
  attr {
    key: "_output_shapes"
    value {
      list {
        shape {
          dim {
            size: -1
          }
          dim {
            size: 5
          }
        }
      }
    }
  }
}
node {
  name: "RNN/MultiRNNCell_5/Cell0/BasicLSTMCell/Sigmoid_1"
  op: "Sigmoid"
  input: "RNN/MultiRNNCell_5/Cell0/BasicLSTMCell/split"
  attr {
    key: "T"
    value {
      type: DT_FLOAT
    }
  }
  attr {
    key: "_output_shapes"
    value {
      list {
        shape {
          dim {
            size: -1
          }
          dim {
            size: 5
          }
        }
      }
    }
  }
}
node {
  name: "RNN/MultiRNNCell_5/Cell0/BasicLSTMCell/Tanh"
  op: "Tanh"
  input: "RNN/MultiRNNCell_5/Cell0/BasicLSTMCell/split:1"
  attr {
    key: "T"
    value {
      type: DT_FLOAT
    }
  }
  attr {
    key: "_output_shapes"
    value {
      list {
        shape {
          dim {
            size: -1
          }
          dim {
            size: 5
          }
        }
      }
    }
  }
}
node {
  name: "RNN/MultiRNNCell_5/Cell0/BasicLSTMCell/mul_1"
  op: "Mul"
  input: "RNN/MultiRNNCell_5/Cell0/BasicLSTMCell/Sigmoid_1"
  input: "RNN/MultiRNNCell_5/Cell0/BasicLSTMCell/Tanh"
  attr {
    key: "T"
    value {
      type: DT_FLOAT
    }
  }
  attr {
    key: "_output_shapes"
    value {
      list {
        shape {
          dim {
            size: -1
          }
          dim {
            size: 5
          }
        }
      }
    }
  }
}
node {
  name: "RNN/MultiRNNCell_5/Cell0/BasicLSTMCell/add_2"
  op: "Add"
  input: "RNN/MultiRNNCell_5/Cell0/BasicLSTMCell/mul"
  input: "RNN/MultiRNNCell_5/Cell0/BasicLSTMCell/mul_1"
  attr {
    key: "T"
    value {
      type: DT_FLOAT
    }
  }
  attr {
    key: "_output_shapes"
    value {
      list {
        shape {
          dim {
            size: -1
          }
          dim {
            size: 5
          }
        }
      }
    }
  }
}
node {
  name: "RNN/MultiRNNCell_5/Cell0/BasicLSTMCell/Tanh_1"
  op: "Tanh"
  input: "RNN/MultiRNNCell_5/Cell0/BasicLSTMCell/add_2"
  attr {
    key: "T"
    value {
      type: DT_FLOAT
    }
  }
  attr {
    key: "_output_shapes"
    value {
      list {
        shape {
          dim {
            size: -1
          }
          dim {
            size: 5
          }
        }
      }
    }
  }
}
node {
  name: "RNN/MultiRNNCell_5/Cell0/BasicLSTMCell/Sigmoid_2"
  op: "Sigmoid"
  input: "RNN/MultiRNNCell_5/Cell0/BasicLSTMCell/split:3"
  attr {
    key: "T"
    value {
      type: DT_FLOAT
    }
  }
  attr {
    key: "_output_shapes"
    value {
      list {
        shape {
          dim {
            size: -1
          }
          dim {
            size: 5
          }
        }
      }
    }
  }
}
node {
  name: "RNN/MultiRNNCell_5/Cell0/BasicLSTMCell/mul_2"
  op: "Mul"
  input: "RNN/MultiRNNCell_5/Cell0/BasicLSTMCell/Tanh_1"
  input: "RNN/MultiRNNCell_5/Cell0/BasicLSTMCell/Sigmoid_2"
  attr {
    key: "T"
    value {
      type: DT_FLOAT
    }
  }
  attr {
    key: "_output_shapes"
    value {
      list {
        shape {
          dim {
            size: -1
          }
          dim {
            size: 5
          }
        }
      }
    }
  }
}
node {
  name: "RNN/MultiRNNCell_6/Cell0/BasicLSTMCell/Linear/concat/concat_dim"
  op: "Const"
  attr {
    key: "_output_shapes"
    value {
      list {
        shape {
        }
      }
    }
  }
  attr {
    key: "dtype"
    value {
      type: DT_INT32
    }
  }
  attr {
    key: "value"
    value {
      tensor {
        dtype: DT_INT32
        tensor_shape {
        }
        int_val: 1
      }
    }
  }
}
node {
  name: "RNN/MultiRNNCell_6/Cell0/BasicLSTMCell/Linear/concat"
  op: "Concat"
  input: "RNN/MultiRNNCell_6/Cell0/BasicLSTMCell/Linear/concat/concat_dim"
  input: "unpack:6"
  input: "RNN/MultiRNNCell_5/Cell0/BasicLSTMCell/mul_2"
  attr {
    key: "N"
    value {
      i: 2
    }
  }
  attr {
    key: "T"
    value {
      type: DT_FLOAT
    }
  }
  attr {
    key: "_output_shapes"
    value {
      list {
        shape {
          dim {
            size: -1
          }
          dim {
            size: 6
          }
        }
      }
    }
  }
}
node {
  name: "RNN/MultiRNNCell_6/Cell0/BasicLSTMCell/Linear/MatMul"
  op: "MatMul"
  input: "RNN/MultiRNNCell_6/Cell0/BasicLSTMCell/Linear/concat"
  input: "RNN/MultiRNNCell/Cell0/BasicLSTMCell/Linear/Matrix/read"
  attr {
    key: "T"
    value {
      type: DT_FLOAT
    }
  }
  attr {
    key: "_output_shapes"
    value {
      list {
        shape {
          dim {
            size: -1
          }
          dim {
            size: 20
          }
        }
      }
    }
  }
  attr {
    key: "transpose_a"
    value {
      b: false
    }
  }
  attr {
    key: "transpose_b"
    value {
      b: false
    }
  }
}
node {
  name: "RNN/MultiRNNCell_6/Cell0/BasicLSTMCell/add"
  op: "Add"
  input: "RNN/MultiRNNCell_6/Cell0/BasicLSTMCell/Linear/MatMul"
  input: "RNN/MultiRNNCell/Cell0/BasicLSTMCell/Linear/Bias/read"
  attr {
    key: "T"
    value {
      type: DT_FLOAT
    }
  }
  attr {
    key: "_output_shapes"
    value {
      list {
        shape {
          dim {
            size: -1
          }
          dim {
            size: 20
          }
        }
      }
    }
  }
}
node {
  name: "RNN/MultiRNNCell_6/Cell0/BasicLSTMCell/split/split_dim"
  op: "Const"
  attr {
    key: "_output_shapes"
    value {
      list {
        shape {
        }
      }
    }
  }
  attr {
    key: "dtype"
    value {
      type: DT_INT32
    }
  }
  attr {
    key: "value"
    value {
      tensor {
        dtype: DT_INT32
        tensor_shape {
        }
        int_val: 1
      }
    }
  }
}
node {
  name: "RNN/MultiRNNCell_6/Cell0/BasicLSTMCell/split"
  op: "Split"
  input: "RNN/MultiRNNCell_6/Cell0/BasicLSTMCell/split/split_dim"
  input: "RNN/MultiRNNCell_6/Cell0/BasicLSTMCell/add"
  attr {
    key: "T"
    value {
      type: DT_FLOAT
    }
  }
  attr {
    key: "_output_shapes"
    value {
      list {
        shape {
          dim {
            size: -1
          }
          dim {
            size: 5
          }
        }
        shape {
          dim {
            size: -1
          }
          dim {
            size: 5
          }
        }
        shape {
          dim {
            size: -1
          }
          dim {
            size: 5
          }
        }
        shape {
          dim {
            size: -1
          }
          dim {
            size: 5
          }
        }
      }
    }
  }
  attr {
    key: "num_split"
    value {
      i: 4
    }
  }
}
node {
  name: "RNN/MultiRNNCell_6/Cell0/BasicLSTMCell/add_1/y"
  op: "Const"
  attr {
    key: "_output_shapes"
    value {
      list {
        shape {
        }
      }
    }
  }
  attr {
    key: "dtype"
    value {
      type: DT_FLOAT
    }
  }
  attr {
    key: "value"
    value {
      tensor {
        dtype: DT_FLOAT
        tensor_shape {
        }
        float_val: 1.0
      }
    }
  }
}
node {
  name: "RNN/MultiRNNCell_6/Cell0/BasicLSTMCell/add_1"
  op: "Add"
  input: "RNN/MultiRNNCell_6/Cell0/BasicLSTMCell/split:2"
  input: "RNN/MultiRNNCell_6/Cell0/BasicLSTMCell/add_1/y"
  attr {
    key: "T"
    value {
      type: DT_FLOAT
    }
  }
  attr {
    key: "_output_shapes"
    value {
      list {
        shape {
          dim {
            size: -1
          }
          dim {
            size: 5
          }
        }
      }
    }
  }
}
node {
  name: "RNN/MultiRNNCell_6/Cell0/BasicLSTMCell/Sigmoid"
  op: "Sigmoid"
  input: "RNN/MultiRNNCell_6/Cell0/BasicLSTMCell/add_1"
  attr {
    key: "T"
    value {
      type: DT_FLOAT
    }
  }
  attr {
    key: "_output_shapes"
    value {
      list {
        shape {
          dim {
            size: -1
          }
          dim {
            size: 5
          }
        }
      }
    }
  }
}
node {
  name: "RNN/MultiRNNCell_6/Cell0/BasicLSTMCell/mul"
  op: "Mul"
  input: "RNN/MultiRNNCell_5/Cell0/BasicLSTMCell/add_2"
  input: "RNN/MultiRNNCell_6/Cell0/BasicLSTMCell/Sigmoid"
  attr {
    key: "T"
    value {
      type: DT_FLOAT
    }
  }
  attr {
    key: "_output_shapes"
    value {
      list {
        shape {
          dim {
            size: -1
          }
          dim {
            size: 5
          }
        }
      }
    }
  }
}
node {
  name: "RNN/MultiRNNCell_6/Cell0/BasicLSTMCell/Sigmoid_1"
  op: "Sigmoid"
  input: "RNN/MultiRNNCell_6/Cell0/BasicLSTMCell/split"
  attr {
    key: "T"
    value {
      type: DT_FLOAT
    }
  }
  attr {
    key: "_output_shapes"
    value {
      list {
        shape {
          dim {
            size: -1
          }
          dim {
            size: 5
          }
        }
      }
    }
  }
}
node {
  name: "RNN/MultiRNNCell_6/Cell0/BasicLSTMCell/Tanh"
  op: "Tanh"
  input: "RNN/MultiRNNCell_6/Cell0/BasicLSTMCell/split:1"
  attr {
    key: "T"
    value {
      type: DT_FLOAT
    }
  }
  attr {
    key: "_output_shapes"
    value {
      list {
        shape {
          dim {
            size: -1
          }
          dim {
            size: 5
          }
        }
      }
    }
  }
}
node {
  name: "RNN/MultiRNNCell_6/Cell0/BasicLSTMCell/mul_1"
  op: "Mul"
  input: "RNN/MultiRNNCell_6/Cell0/BasicLSTMCell/Sigmoid_1"
  input: "RNN/MultiRNNCell_6/Cell0/BasicLSTMCell/Tanh"
  attr {
    key: "T"
    value {
      type: DT_FLOAT
    }
  }
  attr {
    key: "_output_shapes"
    value {
      list {
        shape {
          dim {
            size: -1
          }
          dim {
            size: 5
          }
        }
      }
    }
  }
}
node {
  name: "RNN/MultiRNNCell_6/Cell0/BasicLSTMCell/add_2"
  op: "Add"
  input: "RNN/MultiRNNCell_6/Cell0/BasicLSTMCell/mul"
  input: "RNN/MultiRNNCell_6/Cell0/BasicLSTMCell/mul_1"
  attr {
    key: "T"
    value {
      type: DT_FLOAT
    }
  }
  attr {
    key: "_output_shapes"
    value {
      list {
        shape {
          dim {
            size: -1
          }
          dim {
            size: 5
          }
        }
      }
    }
  }
}
node {
  name: "RNN/MultiRNNCell_6/Cell0/BasicLSTMCell/Tanh_1"
  op: "Tanh"
  input: "RNN/MultiRNNCell_6/Cell0/BasicLSTMCell/add_2"
  attr {
    key: "T"
    value {
      type: DT_FLOAT
    }
  }
  attr {
    key: "_output_shapes"
    value {
      list {
        shape {
          dim {
            size: -1
          }
          dim {
            size: 5
          }
        }
      }
    }
  }
}
node {
  name: "RNN/MultiRNNCell_6/Cell0/BasicLSTMCell/Sigmoid_2"
  op: "Sigmoid"
  input: "RNN/MultiRNNCell_6/Cell0/BasicLSTMCell/split:3"
  attr {
    key: "T"
    value {
      type: DT_FLOAT
    }
  }
  attr {
    key: "_output_shapes"
    value {
      list {
        shape {
          dim {
            size: -1
          }
          dim {
            size: 5
          }
        }
      }
    }
  }
}
node {
  name: "RNN/MultiRNNCell_6/Cell0/BasicLSTMCell/mul_2"
  op: "Mul"
  input: "RNN/MultiRNNCell_6/Cell0/BasicLSTMCell/Tanh_1"
  input: "RNN/MultiRNNCell_6/Cell0/BasicLSTMCell/Sigmoid_2"
  attr {
    key: "T"
    value {
      type: DT_FLOAT
    }
  }
  attr {
    key: "_output_shapes"
    value {
      list {
        shape {
          dim {
            size: -1
          }
          dim {
            size: 5
          }
        }
      }
    }
  }
}
node {
  name: "RNN/MultiRNNCell_7/Cell0/BasicLSTMCell/Linear/concat/concat_dim"
  op: "Const"
  attr {
    key: "_output_shapes"
    value {
      list {
        shape {
        }
      }
    }
  }
  attr {
    key: "dtype"
    value {
      type: DT_INT32
    }
  }
  attr {
    key: "value"
    value {
      tensor {
        dtype: DT_INT32
        tensor_shape {
        }
        int_val: 1
      }
    }
  }
}
node {
  name: "RNN/MultiRNNCell_7/Cell0/BasicLSTMCell/Linear/concat"
  op: "Concat"
  input: "RNN/MultiRNNCell_7/Cell0/BasicLSTMCell/Linear/concat/concat_dim"
  input: "unpack:7"
  input: "RNN/MultiRNNCell_6/Cell0/BasicLSTMCell/mul_2"
  attr {
    key: "N"
    value {
      i: 2
    }
  }
  attr {
    key: "T"
    value {
      type: DT_FLOAT
    }
  }
  attr {
    key: "_output_shapes"
    value {
      list {
        shape {
          dim {
            size: -1
          }
          dim {
            size: 6
          }
        }
      }
    }
  }
}
node {
  name: "RNN/MultiRNNCell_7/Cell0/BasicLSTMCell/Linear/MatMul"
  op: "MatMul"
  input: "RNN/MultiRNNCell_7/Cell0/BasicLSTMCell/Linear/concat"
  input: "RNN/MultiRNNCell/Cell0/BasicLSTMCell/Linear/Matrix/read"
  attr {
    key: "T"
    value {
      type: DT_FLOAT
    }
  }
  attr {
    key: "_output_shapes"
    value {
      list {
        shape {
          dim {
            size: -1
          }
          dim {
            size: 20
          }
        }
      }
    }
  }
  attr {
    key: "transpose_a"
    value {
      b: false
    }
  }
  attr {
    key: "transpose_b"
    value {
      b: false
    }
  }
}
node {
  name: "RNN/MultiRNNCell_7/Cell0/BasicLSTMCell/add"
  op: "Add"
  input: "RNN/MultiRNNCell_7/Cell0/BasicLSTMCell/Linear/MatMul"
  input: "RNN/MultiRNNCell/Cell0/BasicLSTMCell/Linear/Bias/read"
  attr {
    key: "T"
    value {
      type: DT_FLOAT
    }
  }
  attr {
    key: "_output_shapes"
    value {
      list {
        shape {
          dim {
            size: -1
          }
          dim {
            size: 20
          }
        }
      }
    }
  }
}
node {
  name: "RNN/MultiRNNCell_7/Cell0/BasicLSTMCell/split/split_dim"
  op: "Const"
  attr {
    key: "_output_shapes"
    value {
      list {
        shape {
        }
      }
    }
  }
  attr {
    key: "dtype"
    value {
      type: DT_INT32
    }
  }
  attr {
    key: "value"
    value {
      tensor {
        dtype: DT_INT32
        tensor_shape {
        }
        int_val: 1
      }
    }
  }
}
node {
  name: "RNN/MultiRNNCell_7/Cell0/BasicLSTMCell/split"
  op: "Split"
  input: "RNN/MultiRNNCell_7/Cell0/BasicLSTMCell/split/split_dim"
  input: "RNN/MultiRNNCell_7/Cell0/BasicLSTMCell/add"
  attr {
    key: "T"
    value {
      type: DT_FLOAT
    }
  }
  attr {
    key: "_output_shapes"
    value {
      list {
        shape {
          dim {
            size: -1
          }
          dim {
            size: 5
          }
        }
        shape {
          dim {
            size: -1
          }
          dim {
            size: 5
          }
        }
        shape {
          dim {
            size: -1
          }
          dim {
            size: 5
          }
        }
        shape {
          dim {
            size: -1
          }
          dim {
            size: 5
          }
        }
      }
    }
  }
  attr {
    key: "num_split"
    value {
      i: 4
    }
  }
}
node {
  name: "RNN/MultiRNNCell_7/Cell0/BasicLSTMCell/add_1/y"
  op: "Const"
  attr {
    key: "_output_shapes"
    value {
      list {
        shape {
        }
      }
    }
  }
  attr {
    key: "dtype"
    value {
      type: DT_FLOAT
    }
  }
  attr {
    key: "value"
    value {
      tensor {
        dtype: DT_FLOAT
        tensor_shape {
        }
        float_val: 1.0
      }
    }
  }
}
node {
  name: "RNN/MultiRNNCell_7/Cell0/BasicLSTMCell/add_1"
  op: "Add"
  input: "RNN/MultiRNNCell_7/Cell0/BasicLSTMCell/split:2"
  input: "RNN/MultiRNNCell_7/Cell0/BasicLSTMCell/add_1/y"
  attr {
    key: "T"
    value {
      type: DT_FLOAT
    }
  }
  attr {
    key: "_output_shapes"
    value {
      list {
        shape {
          dim {
            size: -1
          }
          dim {
            size: 5
          }
        }
      }
    }
  }
}
node {
  name: "RNN/MultiRNNCell_7/Cell0/BasicLSTMCell/Sigmoid"
  op: "Sigmoid"
  input: "RNN/MultiRNNCell_7/Cell0/BasicLSTMCell/add_1"
  attr {
    key: "T"
    value {
      type: DT_FLOAT
    }
  }
  attr {
    key: "_output_shapes"
    value {
      list {
        shape {
          dim {
            size: -1
          }
          dim {
            size: 5
          }
        }
      }
    }
  }
}
node {
  name: "RNN/MultiRNNCell_7/Cell0/BasicLSTMCell/mul"
  op: "Mul"
  input: "RNN/MultiRNNCell_6/Cell0/BasicLSTMCell/add_2"
  input: "RNN/MultiRNNCell_7/Cell0/BasicLSTMCell/Sigmoid"
  attr {
    key: "T"
    value {
      type: DT_FLOAT
    }
  }
  attr {
    key: "_output_shapes"
    value {
      list {
        shape {
          dim {
            size: -1
          }
          dim {
            size: 5
          }
        }
      }
    }
  }
}
node {
  name: "RNN/MultiRNNCell_7/Cell0/BasicLSTMCell/Sigmoid_1"
  op: "Sigmoid"
  input: "RNN/MultiRNNCell_7/Cell0/BasicLSTMCell/split"
  attr {
    key: "T"
    value {
      type: DT_FLOAT
    }
  }
  attr {
    key: "_output_shapes"
    value {
      list {
        shape {
          dim {
            size: -1
          }
          dim {
            size: 5
          }
        }
      }
    }
  }
}
node {
  name: "RNN/MultiRNNCell_7/Cell0/BasicLSTMCell/Tanh"
  op: "Tanh"
  input: "RNN/MultiRNNCell_7/Cell0/BasicLSTMCell/split:1"
  attr {
    key: "T"
    value {
      type: DT_FLOAT
    }
  }
  attr {
    key: "_output_shapes"
    value {
      list {
        shape {
          dim {
            size: -1
          }
          dim {
            size: 5
          }
        }
      }
    }
  }
}
node {
  name: "RNN/MultiRNNCell_7/Cell0/BasicLSTMCell/mul_1"
  op: "Mul"
  input: "RNN/MultiRNNCell_7/Cell0/BasicLSTMCell/Sigmoid_1"
  input: "RNN/MultiRNNCell_7/Cell0/BasicLSTMCell/Tanh"
  attr {
    key: "T"
    value {
      type: DT_FLOAT
    }
  }
  attr {
    key: "_output_shapes"
    value {
      list {
        shape {
          dim {
            size: -1
          }
          dim {
            size: 5
          }
        }
      }
    }
  }
}
node {
  name: "RNN/MultiRNNCell_7/Cell0/BasicLSTMCell/add_2"
  op: "Add"
  input: "RNN/MultiRNNCell_7/Cell0/BasicLSTMCell/mul"
  input: "RNN/MultiRNNCell_7/Cell0/BasicLSTMCell/mul_1"
  attr {
    key: "T"
    value {
      type: DT_FLOAT
    }
  }
  attr {
    key: "_output_shapes"
    value {
      list {
        shape {
          dim {
            size: -1
          }
          dim {
            size: 5
          }
        }
      }
    }
  }
}
node {
  name: "RNN/MultiRNNCell_7/Cell0/BasicLSTMCell/Tanh_1"
  op: "Tanh"
  input: "RNN/MultiRNNCell_7/Cell0/BasicLSTMCell/add_2"
  attr {
    key: "T"
    value {
      type: DT_FLOAT
    }
  }
  attr {
    key: "_output_shapes"
    value {
      list {
        shape {
          dim {
            size: -1
          }
          dim {
            size: 5
          }
        }
      }
    }
  }
}
node {
  name: "RNN/MultiRNNCell_7/Cell0/BasicLSTMCell/Sigmoid_2"
  op: "Sigmoid"
  input: "RNN/MultiRNNCell_7/Cell0/BasicLSTMCell/split:3"
  attr {
    key: "T"
    value {
      type: DT_FLOAT
    }
  }
  attr {
    key: "_output_shapes"
    value {
      list {
        shape {
          dim {
            size: -1
          }
          dim {
            size: 5
          }
        }
      }
    }
  }
}
node {
  name: "RNN/MultiRNNCell_7/Cell0/BasicLSTMCell/mul_2"
  op: "Mul"
  input: "RNN/MultiRNNCell_7/Cell0/BasicLSTMCell/Tanh_1"
  input: "RNN/MultiRNNCell_7/Cell0/BasicLSTMCell/Sigmoid_2"
  attr {
    key: "T"
    value {
      type: DT_FLOAT
    }
  }
  attr {
    key: "_output_shapes"
    value {
      list {
        shape {
          dim {
            size: -1
          }
          dim {
            size: 5
          }
        }
      }
    }
  }
}
node {
  name: "RNN/MultiRNNCell_8/Cell0/BasicLSTMCell/Linear/concat/concat_dim"
  op: "Const"
  attr {
    key: "_output_shapes"
    value {
      list {
        shape {
        }
      }
    }
  }
  attr {
    key: "dtype"
    value {
      type: DT_INT32
    }
  }
  attr {
    key: "value"
    value {
      tensor {
        dtype: DT_INT32
        tensor_shape {
        }
        int_val: 1
      }
    }
  }
}
node {
  name: "RNN/MultiRNNCell_8/Cell0/BasicLSTMCell/Linear/concat"
  op: "Concat"
  input: "RNN/MultiRNNCell_8/Cell0/BasicLSTMCell/Linear/concat/concat_dim"
  input: "unpack:8"
  input: "RNN/MultiRNNCell_7/Cell0/BasicLSTMCell/mul_2"
  attr {
    key: "N"
    value {
      i: 2
    }
  }
  attr {
    key: "T"
    value {
      type: DT_FLOAT
    }
  }
  attr {
    key: "_output_shapes"
    value {
      list {
        shape {
          dim {
            size: -1
          }
          dim {
            size: 6
          }
        }
      }
    }
  }
}
node {
  name: "RNN/MultiRNNCell_8/Cell0/BasicLSTMCell/Linear/MatMul"
  op: "MatMul"
  input: "RNN/MultiRNNCell_8/Cell0/BasicLSTMCell/Linear/concat"
  input: "RNN/MultiRNNCell/Cell0/BasicLSTMCell/Linear/Matrix/read"
  attr {
    key: "T"
    value {
      type: DT_FLOAT
    }
  }
  attr {
    key: "_output_shapes"
    value {
      list {
        shape {
          dim {
            size: -1
          }
          dim {
            size: 20
          }
        }
      }
    }
  }
  attr {
    key: "transpose_a"
    value {
      b: false
    }
  }
  attr {
    key: "transpose_b"
    value {
      b: false
    }
  }
}
node {
  name: "RNN/MultiRNNCell_8/Cell0/BasicLSTMCell/add"
  op: "Add"
  input: "RNN/MultiRNNCell_8/Cell0/BasicLSTMCell/Linear/MatMul"
  input: "RNN/MultiRNNCell/Cell0/BasicLSTMCell/Linear/Bias/read"
  attr {
    key: "T"
    value {
      type: DT_FLOAT
    }
  }
  attr {
    key: "_output_shapes"
    value {
      list {
        shape {
          dim {
            size: -1
          }
          dim {
            size: 20
          }
        }
      }
    }
  }
}
node {
  name: "RNN/MultiRNNCell_8/Cell0/BasicLSTMCell/split/split_dim"
  op: "Const"
  attr {
    key: "_output_shapes"
    value {
      list {
        shape {
        }
      }
    }
  }
  attr {
    key: "dtype"
    value {
      type: DT_INT32
    }
  }
  attr {
    key: "value"
    value {
      tensor {
        dtype: DT_INT32
        tensor_shape {
        }
        int_val: 1
      }
    }
  }
}
node {
  name: "RNN/MultiRNNCell_8/Cell0/BasicLSTMCell/split"
  op: "Split"
  input: "RNN/MultiRNNCell_8/Cell0/BasicLSTMCell/split/split_dim"
  input: "RNN/MultiRNNCell_8/Cell0/BasicLSTMCell/add"
  attr {
    key: "T"
    value {
      type: DT_FLOAT
    }
  }
  attr {
    key: "_output_shapes"
    value {
      list {
        shape {
          dim {
            size: -1
          }
          dim {
            size: 5
          }
        }
        shape {
          dim {
            size: -1
          }
          dim {
            size: 5
          }
        }
        shape {
          dim {
            size: -1
          }
          dim {
            size: 5
          }
        }
        shape {
          dim {
            size: -1
          }
          dim {
            size: 5
          }
        }
      }
    }
  }
  attr {
    key: "num_split"
    value {
      i: 4
    }
  }
}
node {
  name: "RNN/MultiRNNCell_8/Cell0/BasicLSTMCell/add_1/y"
  op: "Const"
  attr {
    key: "_output_shapes"
    value {
      list {
        shape {
        }
      }
    }
  }
  attr {
    key: "dtype"
    value {
      type: DT_FLOAT
    }
  }
  attr {
    key: "value"
    value {
      tensor {
        dtype: DT_FLOAT
        tensor_shape {
        }
        float_val: 1.0
      }
    }
  }
}
node {
  name: "RNN/MultiRNNCell_8/Cell0/BasicLSTMCell/add_1"
  op: "Add"
  input: "RNN/MultiRNNCell_8/Cell0/BasicLSTMCell/split:2"
  input: "RNN/MultiRNNCell_8/Cell0/BasicLSTMCell/add_1/y"
  attr {
    key: "T"
    value {
      type: DT_FLOAT
    }
  }
  attr {
    key: "_output_shapes"
    value {
      list {
        shape {
          dim {
            size: -1
          }
          dim {
            size: 5
          }
        }
      }
    }
  }
}
node {
  name: "RNN/MultiRNNCell_8/Cell0/BasicLSTMCell/Sigmoid"
  op: "Sigmoid"
  input: "RNN/MultiRNNCell_8/Cell0/BasicLSTMCell/add_1"
  attr {
    key: "T"
    value {
      type: DT_FLOAT
    }
  }
  attr {
    key: "_output_shapes"
    value {
      list {
        shape {
          dim {
            size: -1
          }
          dim {
            size: 5
          }
        }
      }
    }
  }
}
node {
  name: "RNN/MultiRNNCell_8/Cell0/BasicLSTMCell/mul"
  op: "Mul"
  input: "RNN/MultiRNNCell_7/Cell0/BasicLSTMCell/add_2"
  input: "RNN/MultiRNNCell_8/Cell0/BasicLSTMCell/Sigmoid"
  attr {
    key: "T"
    value {
      type: DT_FLOAT
    }
  }
  attr {
    key: "_output_shapes"
    value {
      list {
        shape {
          dim {
            size: -1
          }
          dim {
            size: 5
          }
        }
      }
    }
  }
}
node {
  name: "RNN/MultiRNNCell_8/Cell0/BasicLSTMCell/Sigmoid_1"
  op: "Sigmoid"
  input: "RNN/MultiRNNCell_8/Cell0/BasicLSTMCell/split"
  attr {
    key: "T"
    value {
      type: DT_FLOAT
    }
  }
  attr {
    key: "_output_shapes"
    value {
      list {
        shape {
          dim {
            size: -1
          }
          dim {
            size: 5
          }
        }
      }
    }
  }
}
node {
  name: "RNN/MultiRNNCell_8/Cell0/BasicLSTMCell/Tanh"
  op: "Tanh"
  input: "RNN/MultiRNNCell_8/Cell0/BasicLSTMCell/split:1"
  attr {
    key: "T"
    value {
      type: DT_FLOAT
    }
  }
  attr {
    key: "_output_shapes"
    value {
      list {
        shape {
          dim {
            size: -1
          }
          dim {
            size: 5
          }
        }
      }
    }
  }
}
node {
  name: "RNN/MultiRNNCell_8/Cell0/BasicLSTMCell/mul_1"
  op: "Mul"
  input: "RNN/MultiRNNCell_8/Cell0/BasicLSTMCell/Sigmoid_1"
  input: "RNN/MultiRNNCell_8/Cell0/BasicLSTMCell/Tanh"
  attr {
    key: "T"
    value {
      type: DT_FLOAT
    }
  }
  attr {
    key: "_output_shapes"
    value {
      list {
        shape {
          dim {
            size: -1
          }
          dim {
            size: 5
          }
        }
      }
    }
  }
}
node {
  name: "RNN/MultiRNNCell_8/Cell0/BasicLSTMCell/add_2"
  op: "Add"
  input: "RNN/MultiRNNCell_8/Cell0/BasicLSTMCell/mul"
  input: "RNN/MultiRNNCell_8/Cell0/BasicLSTMCell/mul_1"
  attr {
    key: "T"
    value {
      type: DT_FLOAT
    }
  }
  attr {
    key: "_output_shapes"
    value {
      list {
        shape {
          dim {
            size: -1
          }
          dim {
            size: 5
          }
        }
      }
    }
  }
}
node {
  name: "RNN/MultiRNNCell_8/Cell0/BasicLSTMCell/Tanh_1"
  op: "Tanh"
  input: "RNN/MultiRNNCell_8/Cell0/BasicLSTMCell/add_2"
  attr {
    key: "T"
    value {
      type: DT_FLOAT
    }
  }
  attr {
    key: "_output_shapes"
    value {
      list {
        shape {
          dim {
            size: -1
          }
          dim {
            size: 5
          }
        }
      }
    }
  }
}
node {
  name: "RNN/MultiRNNCell_8/Cell0/BasicLSTMCell/Sigmoid_2"
  op: "Sigmoid"
  input: "RNN/MultiRNNCell_8/Cell0/BasicLSTMCell/split:3"
  attr {
    key: "T"
    value {
      type: DT_FLOAT
    }
  }
  attr {
    key: "_output_shapes"
    value {
      list {
        shape {
          dim {
            size: -1
          }
          dim {
            size: 5
          }
        }
      }
    }
  }
}
node {
  name: "RNN/MultiRNNCell_8/Cell0/BasicLSTMCell/mul_2"
  op: "Mul"
  input: "RNN/MultiRNNCell_8/Cell0/BasicLSTMCell/Tanh_1"
  input: "RNN/MultiRNNCell_8/Cell0/BasicLSTMCell/Sigmoid_2"
  attr {
    key: "T"
    value {
      type: DT_FLOAT
    }
  }
  attr {
    key: "_output_shapes"
    value {
      list {
        shape {
          dim {
            size: -1
          }
          dim {
            size: 5
          }
        }
      }
    }
  }
}
node {
  name: "RNN/MultiRNNCell_9/Cell0/BasicLSTMCell/Linear/concat/concat_dim"
  op: "Const"
  attr {
    key: "_output_shapes"
    value {
      list {
        shape {
        }
      }
    }
  }
  attr {
    key: "dtype"
    value {
      type: DT_INT32
    }
  }
  attr {
    key: "value"
    value {
      tensor {
        dtype: DT_INT32
        tensor_shape {
        }
        int_val: 1
      }
    }
  }
}
node {
  name: "RNN/MultiRNNCell_9/Cell0/BasicLSTMCell/Linear/concat"
  op: "Concat"
  input: "RNN/MultiRNNCell_9/Cell0/BasicLSTMCell/Linear/concat/concat_dim"
  input: "unpack:9"
  input: "RNN/MultiRNNCell_8/Cell0/BasicLSTMCell/mul_2"
  attr {
    key: "N"
    value {
      i: 2
    }
  }
  attr {
    key: "T"
    value {
      type: DT_FLOAT
    }
  }
  attr {
    key: "_output_shapes"
    value {
      list {
        shape {
          dim {
            size: -1
          }
          dim {
            size: 6
          }
        }
      }
    }
  }
}
node {
  name: "RNN/MultiRNNCell_9/Cell0/BasicLSTMCell/Linear/MatMul"
  op: "MatMul"
  input: "RNN/MultiRNNCell_9/Cell0/BasicLSTMCell/Linear/concat"
  input: "RNN/MultiRNNCell/Cell0/BasicLSTMCell/Linear/Matrix/read"
  attr {
    key: "T"
    value {
      type: DT_FLOAT
    }
  }
  attr {
    key: "_output_shapes"
    value {
      list {
        shape {
          dim {
            size: -1
          }
          dim {
            size: 20
          }
        }
      }
    }
  }
  attr {
    key: "transpose_a"
    value {
      b: false
    }
  }
  attr {
    key: "transpose_b"
    value {
      b: false
    }
  }
}
node {
  name: "RNN/MultiRNNCell_9/Cell0/BasicLSTMCell/add"
  op: "Add"
  input: "RNN/MultiRNNCell_9/Cell0/BasicLSTMCell/Linear/MatMul"
  input: "RNN/MultiRNNCell/Cell0/BasicLSTMCell/Linear/Bias/read"
  attr {
    key: "T"
    value {
      type: DT_FLOAT
    }
  }
  attr {
    key: "_output_shapes"
    value {
      list {
        shape {
          dim {
            size: -1
          }
          dim {
            size: 20
          }
        }
      }
    }
  }
}
node {
  name: "RNN/MultiRNNCell_9/Cell0/BasicLSTMCell/split/split_dim"
  op: "Const"
  attr {
    key: "_output_shapes"
    value {
      list {
        shape {
        }
      }
    }
  }
  attr {
    key: "dtype"
    value {
      type: DT_INT32
    }
  }
  attr {
    key: "value"
    value {
      tensor {
        dtype: DT_INT32
        tensor_shape {
        }
        int_val: 1
      }
    }
  }
}
node {
  name: "RNN/MultiRNNCell_9/Cell0/BasicLSTMCell/split"
  op: "Split"
  input: "RNN/MultiRNNCell_9/Cell0/BasicLSTMCell/split/split_dim"
  input: "RNN/MultiRNNCell_9/Cell0/BasicLSTMCell/add"
  attr {
    key: "T"
    value {
      type: DT_FLOAT
    }
  }
  attr {
    key: "_output_shapes"
    value {
      list {
        shape {
          dim {
            size: -1
          }
          dim {
            size: 5
          }
        }
        shape {
          dim {
            size: -1
          }
          dim {
            size: 5
          }
        }
        shape {
          dim {
            size: -1
          }
          dim {
            size: 5
          }
        }
        shape {
          dim {
            size: -1
          }
          dim {
            size: 5
          }
        }
      }
    }
  }
  attr {
    key: "num_split"
    value {
      i: 4
    }
  }
}
node {
  name: "RNN/MultiRNNCell_9/Cell0/BasicLSTMCell/add_1/y"
  op: "Const"
  attr {
    key: "_output_shapes"
    value {
      list {
        shape {
        }
      }
    }
  }
  attr {
    key: "dtype"
    value {
      type: DT_FLOAT
    }
  }
  attr {
    key: "value"
    value {
      tensor {
        dtype: DT_FLOAT
        tensor_shape {
        }
        float_val: 1.0
      }
    }
  }
}
node {
  name: "RNN/MultiRNNCell_9/Cell0/BasicLSTMCell/add_1"
  op: "Add"
  input: "RNN/MultiRNNCell_9/Cell0/BasicLSTMCell/split:2"
  input: "RNN/MultiRNNCell_9/Cell0/BasicLSTMCell/add_1/y"
  attr {
    key: "T"
    value {
      type: DT_FLOAT
    }
  }
  attr {
    key: "_output_shapes"
    value {
      list {
        shape {
          dim {
            size: -1
          }
          dim {
            size: 5
          }
        }
      }
    }
  }
}
node {
  name: "RNN/MultiRNNCell_9/Cell0/BasicLSTMCell/Sigmoid"
  op: "Sigmoid"
  input: "RNN/MultiRNNCell_9/Cell0/BasicLSTMCell/add_1"
  attr {
    key: "T"
    value {
      type: DT_FLOAT
    }
  }
  attr {
    key: "_output_shapes"
    value {
      list {
        shape {
          dim {
            size: -1
          }
          dim {
            size: 5
          }
        }
      }
    }
  }
}
node {
  name: "RNN/MultiRNNCell_9/Cell0/BasicLSTMCell/mul"
  op: "Mul"
  input: "RNN/MultiRNNCell_8/Cell0/BasicLSTMCell/add_2"
  input: "RNN/MultiRNNCell_9/Cell0/BasicLSTMCell/Sigmoid"
  attr {
    key: "T"
    value {
      type: DT_FLOAT
    }
  }
  attr {
    key: "_output_shapes"
    value {
      list {
        shape {
          dim {
            size: -1
          }
          dim {
            size: 5
          }
        }
      }
    }
  }
}
node {
  name: "RNN/MultiRNNCell_9/Cell0/BasicLSTMCell/Sigmoid_1"
  op: "Sigmoid"
  input: "RNN/MultiRNNCell_9/Cell0/BasicLSTMCell/split"
  attr {
    key: "T"
    value {
      type: DT_FLOAT
    }
  }
  attr {
    key: "_output_shapes"
    value {
      list {
        shape {
          dim {
            size: -1
          }
          dim {
            size: 5
          }
        }
      }
    }
  }
}
node {
  name: "RNN/MultiRNNCell_9/Cell0/BasicLSTMCell/Tanh"
  op: "Tanh"
  input: "RNN/MultiRNNCell_9/Cell0/BasicLSTMCell/split:1"
  attr {
    key: "T"
    value {
      type: DT_FLOAT
    }
  }
  attr {
    key: "_output_shapes"
    value {
      list {
        shape {
          dim {
            size: -1
          }
          dim {
            size: 5
          }
        }
      }
    }
  }
}
node {
  name: "RNN/MultiRNNCell_9/Cell0/BasicLSTMCell/mul_1"
  op: "Mul"
  input: "RNN/MultiRNNCell_9/Cell0/BasicLSTMCell/Sigmoid_1"
  input: "RNN/MultiRNNCell_9/Cell0/BasicLSTMCell/Tanh"
  attr {
    key: "T"
    value {
      type: DT_FLOAT
    }
  }
  attr {
    key: "_output_shapes"
    value {
      list {
        shape {
          dim {
            size: -1
          }
          dim {
            size: 5
          }
        }
      }
    }
  }
}
node {
  name: "RNN/MultiRNNCell_9/Cell0/BasicLSTMCell/add_2"
  op: "Add"
  input: "RNN/MultiRNNCell_9/Cell0/BasicLSTMCell/mul"
  input: "RNN/MultiRNNCell_9/Cell0/BasicLSTMCell/mul_1"
  attr {
    key: "T"
    value {
      type: DT_FLOAT
    }
  }
  attr {
    key: "_output_shapes"
    value {
      list {
        shape {
          dim {
            size: -1
          }
          dim {
            size: 5
          }
        }
      }
    }
  }
}
node {
  name: "RNN/MultiRNNCell_9/Cell0/BasicLSTMCell/Tanh_1"
  op: "Tanh"
  input: "RNN/MultiRNNCell_9/Cell0/BasicLSTMCell/add_2"
  attr {
    key: "T"
    value {
      type: DT_FLOAT
    }
  }
  attr {
    key: "_output_shapes"
    value {
      list {
        shape {
          dim {
            size: -1
          }
          dim {
            size: 5
          }
        }
      }
    }
  }
}
node {
  name: "RNN/MultiRNNCell_9/Cell0/BasicLSTMCell/Sigmoid_2"
  op: "Sigmoid"
  input: "RNN/MultiRNNCell_9/Cell0/BasicLSTMCell/split:3"
  attr {
    key: "T"
    value {
      type: DT_FLOAT
    }
  }
  attr {
    key: "_output_shapes"
    value {
      list {
        shape {
          dim {
            size: -1
          }
          dim {
            size: 5
          }
        }
      }
    }
  }
}
node {
  name: "RNN/MultiRNNCell_9/Cell0/BasicLSTMCell/mul_2"
  op: "Mul"
  input: "RNN/MultiRNNCell_9/Cell0/BasicLSTMCell/Tanh_1"
  input: "RNN/MultiRNNCell_9/Cell0/BasicLSTMCell/Sigmoid_2"
  attr {
    key: "T"
    value {
      type: DT_FLOAT
    }
  }
  attr {
    key: "_output_shapes"
    value {
      list {
        shape {
          dim {
            size: -1
          }
          dim {
            size: 5
          }
        }
      }
    }
  }
}
node {
  name: "RNN/MultiRNNCell_10/Cell0/BasicLSTMCell/Linear/concat/concat_dim"
  op: "Const"
  attr {
    key: "_output_shapes"
    value {
      list {
        shape {
        }
      }
    }
  }
  attr {
    key: "dtype"
    value {
      type: DT_INT32
    }
  }
  attr {
    key: "value"
    value {
      tensor {
        dtype: DT_INT32
        tensor_shape {
        }
        int_val: 1
      }
    }
  }
}
node {
  name: "RNN/MultiRNNCell_10/Cell0/BasicLSTMCell/Linear/concat"
  op: "Concat"
  input: "RNN/MultiRNNCell_10/Cell0/BasicLSTMCell/Linear/concat/concat_dim"
  input: "unpack:10"
  input: "RNN/MultiRNNCell_9/Cell0/BasicLSTMCell/mul_2"
  attr {
    key: "N"
    value {
      i: 2
    }
  }
  attr {
    key: "T"
    value {
      type: DT_FLOAT
    }
  }
  attr {
    key: "_output_shapes"
    value {
      list {
        shape {
          dim {
            size: -1
          }
          dim {
            size: 6
          }
        }
      }
    }
  }
}
node {
  name: "RNN/MultiRNNCell_10/Cell0/BasicLSTMCell/Linear/MatMul"
  op: "MatMul"
  input: "RNN/MultiRNNCell_10/Cell0/BasicLSTMCell/Linear/concat"
  input: "RNN/MultiRNNCell/Cell0/BasicLSTMCell/Linear/Matrix/read"
  attr {
    key: "T"
    value {
      type: DT_FLOAT
    }
  }
  attr {
    key: "_output_shapes"
    value {
      list {
        shape {
          dim {
            size: -1
          }
          dim {
            size: 20
          }
        }
      }
    }
  }
  attr {
    key: "transpose_a"
    value {
      b: false
    }
  }
  attr {
    key: "transpose_b"
    value {
      b: false
    }
  }
}
node {
  name: "RNN/MultiRNNCell_10/Cell0/BasicLSTMCell/add"
  op: "Add"
  input: "RNN/MultiRNNCell_10/Cell0/BasicLSTMCell/Linear/MatMul"
  input: "RNN/MultiRNNCell/Cell0/BasicLSTMCell/Linear/Bias/read"
  attr {
    key: "T"
    value {
      type: DT_FLOAT
    }
  }
  attr {
    key: "_output_shapes"
    value {
      list {
        shape {
          dim {
            size: -1
          }
          dim {
            size: 20
          }
        }
      }
    }
  }
}
node {
  name: "RNN/MultiRNNCell_10/Cell0/BasicLSTMCell/split/split_dim"
  op: "Const"
  attr {
    key: "_output_shapes"
    value {
      list {
        shape {
        }
      }
    }
  }
  attr {
    key: "dtype"
    value {
      type: DT_INT32
    }
  }
  attr {
    key: "value"
    value {
      tensor {
        dtype: DT_INT32
        tensor_shape {
        }
        int_val: 1
      }
    }
  }
}
node {
  name: "RNN/MultiRNNCell_10/Cell0/BasicLSTMCell/split"
  op: "Split"
  input: "RNN/MultiRNNCell_10/Cell0/BasicLSTMCell/split/split_dim"
  input: "RNN/MultiRNNCell_10/Cell0/BasicLSTMCell/add"
  attr {
    key: "T"
    value {
      type: DT_FLOAT
    }
  }
  attr {
    key: "_output_shapes"
    value {
      list {
        shape {
          dim {
            size: -1
          }
          dim {
            size: 5
          }
        }
        shape {
          dim {
            size: -1
          }
          dim {
            size: 5
          }
        }
        shape {
          dim {
            size: -1
          }
          dim {
            size: 5
          }
        }
        shape {
          dim {
            size: -1
          }
          dim {
            size: 5
          }
        }
      }
    }
  }
  attr {
    key: "num_split"
    value {
      i: 4
    }
  }
}
node {
  name: "RNN/MultiRNNCell_10/Cell0/BasicLSTMCell/add_1/y"
  op: "Const"
  attr {
    key: "_output_shapes"
    value {
      list {
        shape {
        }
      }
    }
  }
  attr {
    key: "dtype"
    value {
      type: DT_FLOAT
    }
  }
  attr {
    key: "value"
    value {
      tensor {
        dtype: DT_FLOAT
        tensor_shape {
        }
        float_val: 1.0
      }
    }
  }
}
node {
  name: "RNN/MultiRNNCell_10/Cell0/BasicLSTMCell/add_1"
  op: "Add"
  input: "RNN/MultiRNNCell_10/Cell0/BasicLSTMCell/split:2"
  input: "RNN/MultiRNNCell_10/Cell0/BasicLSTMCell/add_1/y"
  attr {
    key: "T"
    value {
      type: DT_FLOAT
    }
  }
  attr {
    key: "_output_shapes"
    value {
      list {
        shape {
          dim {
            size: -1
          }
          dim {
            size: 5
          }
        }
      }
    }
  }
}
node {
  name: "RNN/MultiRNNCell_10/Cell0/BasicLSTMCell/Sigmoid"
  op: "Sigmoid"
  input: "RNN/MultiRNNCell_10/Cell0/BasicLSTMCell/add_1"
  attr {
    key: "T"
    value {
      type: DT_FLOAT
    }
  }
  attr {
    key: "_output_shapes"
    value {
      list {
        shape {
          dim {
            size: -1
          }
          dim {
            size: 5
          }
        }
      }
    }
  }
}
node {
  name: "RNN/MultiRNNCell_10/Cell0/BasicLSTMCell/mul"
  op: "Mul"
  input: "RNN/MultiRNNCell_9/Cell0/BasicLSTMCell/add_2"
  input: "RNN/MultiRNNCell_10/Cell0/BasicLSTMCell/Sigmoid"
  attr {
    key: "T"
    value {
      type: DT_FLOAT
    }
  }
  attr {
    key: "_output_shapes"
    value {
      list {
        shape {
          dim {
            size: -1
          }
          dim {
            size: 5
          }
        }
      }
    }
  }
}
node {
  name: "RNN/MultiRNNCell_10/Cell0/BasicLSTMCell/Sigmoid_1"
  op: "Sigmoid"
  input: "RNN/MultiRNNCell_10/Cell0/BasicLSTMCell/split"
  attr {
    key: "T"
    value {
      type: DT_FLOAT
    }
  }
  attr {
    key: "_output_shapes"
    value {
      list {
        shape {
          dim {
            size: -1
          }
          dim {
            size: 5
          }
        }
      }
    }
  }
}
node {
  name: "RNN/MultiRNNCell_10/Cell0/BasicLSTMCell/Tanh"
  op: "Tanh"
  input: "RNN/MultiRNNCell_10/Cell0/BasicLSTMCell/split:1"
  attr {
    key: "T"
    value {
      type: DT_FLOAT
    }
  }
  attr {
    key: "_output_shapes"
    value {
      list {
        shape {
          dim {
            size: -1
          }
          dim {
            size: 5
          }
        }
      }
    }
  }
}
node {
  name: "RNN/MultiRNNCell_10/Cell0/BasicLSTMCell/mul_1"
  op: "Mul"
  input: "RNN/MultiRNNCell_10/Cell0/BasicLSTMCell/Sigmoid_1"
  input: "RNN/MultiRNNCell_10/Cell0/BasicLSTMCell/Tanh"
  attr {
    key: "T"
    value {
      type: DT_FLOAT
    }
  }
  attr {
    key: "_output_shapes"
    value {
      list {
        shape {
          dim {
            size: -1
          }
          dim {
            size: 5
          }
        }
      }
    }
  }
}
node {
  name: "RNN/MultiRNNCell_10/Cell0/BasicLSTMCell/add_2"
  op: "Add"
  input: "RNN/MultiRNNCell_10/Cell0/BasicLSTMCell/mul"
  input: "RNN/MultiRNNCell_10/Cell0/BasicLSTMCell/mul_1"
  attr {
    key: "T"
    value {
      type: DT_FLOAT
    }
  }
  attr {
    key: "_output_shapes"
    value {
      list {
        shape {
          dim {
            size: -1
          }
          dim {
            size: 5
          }
        }
      }
    }
  }
}
node {
  name: "RNN/MultiRNNCell_10/Cell0/BasicLSTMCell/Tanh_1"
  op: "Tanh"
  input: "RNN/MultiRNNCell_10/Cell0/BasicLSTMCell/add_2"
  attr {
    key: "T"
    value {
      type: DT_FLOAT
    }
  }
  attr {
    key: "_output_shapes"
    value {
      list {
        shape {
          dim {
            size: -1
          }
          dim {
            size: 5
          }
        }
      }
    }
  }
}
node {
  name: "RNN/MultiRNNCell_10/Cell0/BasicLSTMCell/Sigmoid_2"
  op: "Sigmoid"
  input: "RNN/MultiRNNCell_10/Cell0/BasicLSTMCell/split:3"
  attr {
    key: "T"
    value {
      type: DT_FLOAT
    }
  }
  attr {
    key: "_output_shapes"
    value {
      list {
        shape {
          dim {
            size: -1
          }
          dim {
            size: 5
          }
        }
      }
    }
  }
}
node {
  name: "RNN/MultiRNNCell_10/Cell0/BasicLSTMCell/mul_2"
  op: "Mul"
  input: "RNN/MultiRNNCell_10/Cell0/BasicLSTMCell/Tanh_1"
  input: "RNN/MultiRNNCell_10/Cell0/BasicLSTMCell/Sigmoid_2"
  attr {
    key: "T"
    value {
      type: DT_FLOAT
    }
  }
  attr {
    key: "_output_shapes"
    value {
      list {
        shape {
          dim {
            size: -1
          }
          dim {
            size: 5
          }
        }
      }
    }
  }
}
node {
  name: "RNN/MultiRNNCell_11/Cell0/BasicLSTMCell/Linear/concat/concat_dim"
  op: "Const"
  attr {
    key: "_output_shapes"
    value {
      list {
        shape {
        }
      }
    }
  }
  attr {
    key: "dtype"
    value {
      type: DT_INT32
    }
  }
  attr {
    key: "value"
    value {
      tensor {
        dtype: DT_INT32
        tensor_shape {
        }
        int_val: 1
      }
    }
  }
}
node {
  name: "RNN/MultiRNNCell_11/Cell0/BasicLSTMCell/Linear/concat"
  op: "Concat"
  input: "RNN/MultiRNNCell_11/Cell0/BasicLSTMCell/Linear/concat/concat_dim"
  input: "unpack:11"
  input: "RNN/MultiRNNCell_10/Cell0/BasicLSTMCell/mul_2"
  attr {
    key: "N"
    value {
      i: 2
    }
  }
  attr {
    key: "T"
    value {
      type: DT_FLOAT
    }
  }
  attr {
    key: "_output_shapes"
    value {
      list {
        shape {
          dim {
            size: -1
          }
          dim {
            size: 6
          }
        }
      }
    }
  }
}
node {
  name: "RNN/MultiRNNCell_11/Cell0/BasicLSTMCell/Linear/MatMul"
  op: "MatMul"
  input: "RNN/MultiRNNCell_11/Cell0/BasicLSTMCell/Linear/concat"
  input: "RNN/MultiRNNCell/Cell0/BasicLSTMCell/Linear/Matrix/read"
  attr {
    key: "T"
    value {
      type: DT_FLOAT
    }
  }
  attr {
    key: "_output_shapes"
    value {
      list {
        shape {
          dim {
            size: -1
          }
          dim {
            size: 20
          }
        }
      }
    }
  }
  attr {
    key: "transpose_a"
    value {
      b: false
    }
  }
  attr {
    key: "transpose_b"
    value {
      b: false
    }
  }
}
node {
  name: "RNN/MultiRNNCell_11/Cell0/BasicLSTMCell/add"
  op: "Add"
  input: "RNN/MultiRNNCell_11/Cell0/BasicLSTMCell/Linear/MatMul"
  input: "RNN/MultiRNNCell/Cell0/BasicLSTMCell/Linear/Bias/read"
  attr {
    key: "T"
    value {
      type: DT_FLOAT
    }
  }
  attr {
    key: "_output_shapes"
    value {
      list {
        shape {
          dim {
            size: -1
          }
          dim {
            size: 20
          }
        }
      }
    }
  }
}
node {
  name: "RNN/MultiRNNCell_11/Cell0/BasicLSTMCell/split/split_dim"
  op: "Const"
  attr {
    key: "_output_shapes"
    value {
      list {
        shape {
        }
      }
    }
  }
  attr {
    key: "dtype"
    value {
      type: DT_INT32
    }
  }
  attr {
    key: "value"
    value {
      tensor {
        dtype: DT_INT32
        tensor_shape {
        }
        int_val: 1
      }
    }
  }
}
node {
  name: "RNN/MultiRNNCell_11/Cell0/BasicLSTMCell/split"
  op: "Split"
  input: "RNN/MultiRNNCell_11/Cell0/BasicLSTMCell/split/split_dim"
  input: "RNN/MultiRNNCell_11/Cell0/BasicLSTMCell/add"
  attr {
    key: "T"
    value {
      type: DT_FLOAT
    }
  }
  attr {
    key: "_output_shapes"
    value {
      list {
        shape {
          dim {
            size: -1
          }
          dim {
            size: 5
          }
        }
        shape {
          dim {
            size: -1
          }
          dim {
            size: 5
          }
        }
        shape {
          dim {
            size: -1
          }
          dim {
            size: 5
          }
        }
        shape {
          dim {
            size: -1
          }
          dim {
            size: 5
          }
        }
      }
    }
  }
  attr {
    key: "num_split"
    value {
      i: 4
    }
  }
}
node {
  name: "RNN/MultiRNNCell_11/Cell0/BasicLSTMCell/add_1/y"
  op: "Const"
  attr {
    key: "_output_shapes"
    value {
      list {
        shape {
        }
      }
    }
  }
  attr {
    key: "dtype"
    value {
      type: DT_FLOAT
    }
  }
  attr {
    key: "value"
    value {
      tensor {
        dtype: DT_FLOAT
        tensor_shape {
        }
        float_val: 1.0
      }
    }
  }
}
node {
  name: "RNN/MultiRNNCell_11/Cell0/BasicLSTMCell/add_1"
  op: "Add"
  input: "RNN/MultiRNNCell_11/Cell0/BasicLSTMCell/split:2"
  input: "RNN/MultiRNNCell_11/Cell0/BasicLSTMCell/add_1/y"
  attr {
    key: "T"
    value {
      type: DT_FLOAT
    }
  }
  attr {
    key: "_output_shapes"
    value {
      list {
        shape {
          dim {
            size: -1
          }
          dim {
            size: 5
          }
        }
      }
    }
  }
}
node {
  name: "RNN/MultiRNNCell_11/Cell0/BasicLSTMCell/Sigmoid"
  op: "Sigmoid"
  input: "RNN/MultiRNNCell_11/Cell0/BasicLSTMCell/add_1"
  attr {
    key: "T"
    value {
      type: DT_FLOAT
    }
  }
  attr {
    key: "_output_shapes"
    value {
      list {
        shape {
          dim {
            size: -1
          }
          dim {
            size: 5
          }
        }
      }
    }
  }
}
node {
  name: "RNN/MultiRNNCell_11/Cell0/BasicLSTMCell/mul"
  op: "Mul"
  input: "RNN/MultiRNNCell_10/Cell0/BasicLSTMCell/add_2"
  input: "RNN/MultiRNNCell_11/Cell0/BasicLSTMCell/Sigmoid"
  attr {
    key: "T"
    value {
      type: DT_FLOAT
    }
  }
  attr {
    key: "_output_shapes"
    value {
      list {
        shape {
          dim {
            size: -1
          }
          dim {
            size: 5
          }
        }
      }
    }
  }
}
node {
  name: "RNN/MultiRNNCell_11/Cell0/BasicLSTMCell/Sigmoid_1"
  op: "Sigmoid"
  input: "RNN/MultiRNNCell_11/Cell0/BasicLSTMCell/split"
  attr {
    key: "T"
    value {
      type: DT_FLOAT
    }
  }
  attr {
    key: "_output_shapes"
    value {
      list {
        shape {
          dim {
            size: -1
          }
          dim {
            size: 5
          }
        }
      }
    }
  }
}
node {
  name: "RNN/MultiRNNCell_11/Cell0/BasicLSTMCell/Tanh"
  op: "Tanh"
  input: "RNN/MultiRNNCell_11/Cell0/BasicLSTMCell/split:1"
  attr {
    key: "T"
    value {
      type: DT_FLOAT
    }
  }
  attr {
    key: "_output_shapes"
    value {
      list {
        shape {
          dim {
            size: -1
          }
          dim {
            size: 5
          }
        }
      }
    }
  }
}
node {
  name: "RNN/MultiRNNCell_11/Cell0/BasicLSTMCell/mul_1"
  op: "Mul"
  input: "RNN/MultiRNNCell_11/Cell0/BasicLSTMCell/Sigmoid_1"
  input: "RNN/MultiRNNCell_11/Cell0/BasicLSTMCell/Tanh"
  attr {
    key: "T"
    value {
      type: DT_FLOAT
    }
  }
  attr {
    key: "_output_shapes"
    value {
      list {
        shape {
          dim {
            size: -1
          }
          dim {
            size: 5
          }
        }
      }
    }
  }
}
node {
  name: "RNN/MultiRNNCell_11/Cell0/BasicLSTMCell/add_2"
  op: "Add"
  input: "RNN/MultiRNNCell_11/Cell0/BasicLSTMCell/mul"
  input: "RNN/MultiRNNCell_11/Cell0/BasicLSTMCell/mul_1"
  attr {
    key: "T"
    value {
      type: DT_FLOAT
    }
  }
  attr {
    key: "_output_shapes"
    value {
      list {
        shape {
          dim {
            size: -1
          }
          dim {
            size: 5
          }
        }
      }
    }
  }
}
node {
  name: "RNN/MultiRNNCell_11/Cell0/BasicLSTMCell/Tanh_1"
  op: "Tanh"
  input: "RNN/MultiRNNCell_11/Cell0/BasicLSTMCell/add_2"
  attr {
    key: "T"
    value {
      type: DT_FLOAT
    }
  }
  attr {
    key: "_output_shapes"
    value {
      list {
        shape {
          dim {
            size: -1
          }
          dim {
            size: 5
          }
        }
      }
    }
  }
}
node {
  name: "RNN/MultiRNNCell_11/Cell0/BasicLSTMCell/Sigmoid_2"
  op: "Sigmoid"
  input: "RNN/MultiRNNCell_11/Cell0/BasicLSTMCell/split:3"
  attr {
    key: "T"
    value {
      type: DT_FLOAT
    }
  }
  attr {
    key: "_output_shapes"
    value {
      list {
        shape {
          dim {
            size: -1
          }
          dim {
            size: 5
          }
        }
      }
    }
  }
}
node {
  name: "RNN/MultiRNNCell_11/Cell0/BasicLSTMCell/mul_2"
  op: "Mul"
  input: "RNN/MultiRNNCell_11/Cell0/BasicLSTMCell/Tanh_1"
  input: "RNN/MultiRNNCell_11/Cell0/BasicLSTMCell/Sigmoid_2"
  attr {
    key: "T"
    value {
      type: DT_FLOAT
    }
  }
  attr {
    key: "_output_shapes"
    value {
      list {
        shape {
          dim {
            size: -1
          }
          dim {
            size: 5
          }
        }
      }
    }
  }
}
node {
  name: "RNN/MultiRNNCell_12/Cell0/BasicLSTMCell/Linear/concat/concat_dim"
  op: "Const"
  attr {
    key: "_output_shapes"
    value {
      list {
        shape {
        }
      }
    }
  }
  attr {
    key: "dtype"
    value {
      type: DT_INT32
    }
  }
  attr {
    key: "value"
    value {
      tensor {
        dtype: DT_INT32
        tensor_shape {
        }
        int_val: 1
      }
    }
  }
}
node {
  name: "RNN/MultiRNNCell_12/Cell0/BasicLSTMCell/Linear/concat"
  op: "Concat"
  input: "RNN/MultiRNNCell_12/Cell0/BasicLSTMCell/Linear/concat/concat_dim"
  input: "unpack:12"
  input: "RNN/MultiRNNCell_11/Cell0/BasicLSTMCell/mul_2"
  attr {
    key: "N"
    value {
      i: 2
    }
  }
  attr {
    key: "T"
    value {
      type: DT_FLOAT
    }
  }
  attr {
    key: "_output_shapes"
    value {
      list {
        shape {
          dim {
            size: -1
          }
          dim {
            size: 6
          }
        }
      }
    }
  }
}
node {
  name: "RNN/MultiRNNCell_12/Cell0/BasicLSTMCell/Linear/MatMul"
  op: "MatMul"
  input: "RNN/MultiRNNCell_12/Cell0/BasicLSTMCell/Linear/concat"
  input: "RNN/MultiRNNCell/Cell0/BasicLSTMCell/Linear/Matrix/read"
  attr {
    key: "T"
    value {
      type: DT_FLOAT
    }
  }
  attr {
    key: "_output_shapes"
    value {
      list {
        shape {
          dim {
            size: -1
          }
          dim {
            size: 20
          }
        }
      }
    }
  }
  attr {
    key: "transpose_a"
    value {
      b: false
    }
  }
  attr {
    key: "transpose_b"
    value {
      b: false
    }
  }
}
node {
  name: "RNN/MultiRNNCell_12/Cell0/BasicLSTMCell/add"
  op: "Add"
  input: "RNN/MultiRNNCell_12/Cell0/BasicLSTMCell/Linear/MatMul"
  input: "RNN/MultiRNNCell/Cell0/BasicLSTMCell/Linear/Bias/read"
  attr {
    key: "T"
    value {
      type: DT_FLOAT
    }
  }
  attr {
    key: "_output_shapes"
    value {
      list {
        shape {
          dim {
            size: -1
          }
          dim {
            size: 20
          }
        }
      }
    }
  }
}
node {
  name: "RNN/MultiRNNCell_12/Cell0/BasicLSTMCell/split/split_dim"
  op: "Const"
  attr {
    key: "_output_shapes"
    value {
      list {
        shape {
        }
      }
    }
  }
  attr {
    key: "dtype"
    value {
      type: DT_INT32
    }
  }
  attr {
    key: "value"
    value {
      tensor {
        dtype: DT_INT32
        tensor_shape {
        }
        int_val: 1
      }
    }
  }
}
node {
  name: "RNN/MultiRNNCell_12/Cell0/BasicLSTMCell/split"
  op: "Split"
  input: "RNN/MultiRNNCell_12/Cell0/BasicLSTMCell/split/split_dim"
  input: "RNN/MultiRNNCell_12/Cell0/BasicLSTMCell/add"
  attr {
    key: "T"
    value {
      type: DT_FLOAT
    }
  }
  attr {
    key: "_output_shapes"
    value {
      list {
        shape {
          dim {
            size: -1
          }
          dim {
            size: 5
          }
        }
        shape {
          dim {
            size: -1
          }
          dim {
            size: 5
          }
        }
        shape {
          dim {
            size: -1
          }
          dim {
            size: 5
          }
        }
        shape {
          dim {
            size: -1
          }
          dim {
            size: 5
          }
        }
      }
    }
  }
  attr {
    key: "num_split"
    value {
      i: 4
    }
  }
}
node {
  name: "RNN/MultiRNNCell_12/Cell0/BasicLSTMCell/add_1/y"
  op: "Const"
  attr {
    key: "_output_shapes"
    value {
      list {
        shape {
        }
      }
    }
  }
  attr {
    key: "dtype"
    value {
      type: DT_FLOAT
    }
  }
  attr {
    key: "value"
    value {
      tensor {
        dtype: DT_FLOAT
        tensor_shape {
        }
        float_val: 1.0
      }
    }
  }
}
node {
  name: "RNN/MultiRNNCell_12/Cell0/BasicLSTMCell/add_1"
  op: "Add"
  input: "RNN/MultiRNNCell_12/Cell0/BasicLSTMCell/split:2"
  input: "RNN/MultiRNNCell_12/Cell0/BasicLSTMCell/add_1/y"
  attr {
    key: "T"
    value {
      type: DT_FLOAT
    }
  }
  attr {
    key: "_output_shapes"
    value {
      list {
        shape {
          dim {
            size: -1
          }
          dim {
            size: 5
          }
        }
      }
    }
  }
}
node {
  name: "RNN/MultiRNNCell_12/Cell0/BasicLSTMCell/Sigmoid"
  op: "Sigmoid"
  input: "RNN/MultiRNNCell_12/Cell0/BasicLSTMCell/add_1"
  attr {
    key: "T"
    value {
      type: DT_FLOAT
    }
  }
  attr {
    key: "_output_shapes"
    value {
      list {
        shape {
          dim {
            size: -1
          }
          dim {
            size: 5
          }
        }
      }
    }
  }
}
node {
  name: "RNN/MultiRNNCell_12/Cell0/BasicLSTMCell/mul"
  op: "Mul"
  input: "RNN/MultiRNNCell_11/Cell0/BasicLSTMCell/add_2"
  input: "RNN/MultiRNNCell_12/Cell0/BasicLSTMCell/Sigmoid"
  attr {
    key: "T"
    value {
      type: DT_FLOAT
    }
  }
  attr {
    key: "_output_shapes"
    value {
      list {
        shape {
          dim {
            size: -1
          }
          dim {
            size: 5
          }
        }
      }
    }
  }
}
node {
  name: "RNN/MultiRNNCell_12/Cell0/BasicLSTMCell/Sigmoid_1"
  op: "Sigmoid"
  input: "RNN/MultiRNNCell_12/Cell0/BasicLSTMCell/split"
  attr {
    key: "T"
    value {
      type: DT_FLOAT
    }
  }
  attr {
    key: "_output_shapes"
    value {
      list {
        shape {
          dim {
            size: -1
          }
          dim {
            size: 5
          }
        }
      }
    }
  }
}
node {
  name: "RNN/MultiRNNCell_12/Cell0/BasicLSTMCell/Tanh"
  op: "Tanh"
  input: "RNN/MultiRNNCell_12/Cell0/BasicLSTMCell/split:1"
  attr {
    key: "T"
    value {
      type: DT_FLOAT
    }
  }
  attr {
    key: "_output_shapes"
    value {
      list {
        shape {
          dim {
            size: -1
          }
          dim {
            size: 5
          }
        }
      }
    }
  }
}
node {
  name: "RNN/MultiRNNCell_12/Cell0/BasicLSTMCell/mul_1"
  op: "Mul"
  input: "RNN/MultiRNNCell_12/Cell0/BasicLSTMCell/Sigmoid_1"
  input: "RNN/MultiRNNCell_12/Cell0/BasicLSTMCell/Tanh"
  attr {
    key: "T"
    value {
      type: DT_FLOAT
    }
  }
  attr {
    key: "_output_shapes"
    value {
      list {
        shape {
          dim {
            size: -1
          }
          dim {
            size: 5
          }
        }
      }
    }
  }
}
node {
  name: "RNN/MultiRNNCell_12/Cell0/BasicLSTMCell/add_2"
  op: "Add"
  input: "RNN/MultiRNNCell_12/Cell0/BasicLSTMCell/mul"
  input: "RNN/MultiRNNCell_12/Cell0/BasicLSTMCell/mul_1"
  attr {
    key: "T"
    value {
      type: DT_FLOAT
    }
  }
  attr {
    key: "_output_shapes"
    value {
      list {
        shape {
          dim {
            size: -1
          }
          dim {
            size: 5
          }
        }
      }
    }
  }
}
node {
  name: "RNN/MultiRNNCell_12/Cell0/BasicLSTMCell/Tanh_1"
  op: "Tanh"
  input: "RNN/MultiRNNCell_12/Cell0/BasicLSTMCell/add_2"
  attr {
    key: "T"
    value {
      type: DT_FLOAT
    }
  }
  attr {
    key: "_output_shapes"
    value {
      list {
        shape {
          dim {
            size: -1
          }
          dim {
            size: 5
          }
        }
      }
    }
  }
}
node {
  name: "RNN/MultiRNNCell_12/Cell0/BasicLSTMCell/Sigmoid_2"
  op: "Sigmoid"
  input: "RNN/MultiRNNCell_12/Cell0/BasicLSTMCell/split:3"
  attr {
    key: "T"
    value {
      type: DT_FLOAT
    }
  }
  attr {
    key: "_output_shapes"
    value {
      list {
        shape {
          dim {
            size: -1
          }
          dim {
            size: 5
          }
        }
      }
    }
  }
}
node {
  name: "RNN/MultiRNNCell_12/Cell0/BasicLSTMCell/mul_2"
  op: "Mul"
  input: "RNN/MultiRNNCell_12/Cell0/BasicLSTMCell/Tanh_1"
  input: "RNN/MultiRNNCell_12/Cell0/BasicLSTMCell/Sigmoid_2"
  attr {
    key: "T"
    value {
      type: DT_FLOAT
    }
  }
  attr {
    key: "_output_shapes"
    value {
      list {
        shape {
          dim {
            size: -1
          }
          dim {
            size: 5
          }
        }
      }
    }
  }
}
node {
  name: "RNN/MultiRNNCell_13/Cell0/BasicLSTMCell/Linear/concat/concat_dim"
  op: "Const"
  attr {
    key: "_output_shapes"
    value {
      list {
        shape {
        }
      }
    }
  }
  attr {
    key: "dtype"
    value {
      type: DT_INT32
    }
  }
  attr {
    key: "value"
    value {
      tensor {
        dtype: DT_INT32
        tensor_shape {
        }
        int_val: 1
      }
    }
  }
}
node {
  name: "RNN/MultiRNNCell_13/Cell0/BasicLSTMCell/Linear/concat"
  op: "Concat"
  input: "RNN/MultiRNNCell_13/Cell0/BasicLSTMCell/Linear/concat/concat_dim"
  input: "unpack:13"
  input: "RNN/MultiRNNCell_12/Cell0/BasicLSTMCell/mul_2"
  attr {
    key: "N"
    value {
      i: 2
    }
  }
  attr {
    key: "T"
    value {
      type: DT_FLOAT
    }
  }
  attr {
    key: "_output_shapes"
    value {
      list {
        shape {
          dim {
            size: -1
          }
          dim {
            size: 6
          }
        }
      }
    }
  }
}
node {
  name: "RNN/MultiRNNCell_13/Cell0/BasicLSTMCell/Linear/MatMul"
  op: "MatMul"
  input: "RNN/MultiRNNCell_13/Cell0/BasicLSTMCell/Linear/concat"
  input: "RNN/MultiRNNCell/Cell0/BasicLSTMCell/Linear/Matrix/read"
  attr {
    key: "T"
    value {
      type: DT_FLOAT
    }
  }
  attr {
    key: "_output_shapes"
    value {
      list {
        shape {
          dim {
            size: -1
          }
          dim {
            size: 20
          }
        }
      }
    }
  }
  attr {
    key: "transpose_a"
    value {
      b: false
    }
  }
  attr {
    key: "transpose_b"
    value {
      b: false
    }
  }
}
node {
  name: "RNN/MultiRNNCell_13/Cell0/BasicLSTMCell/add"
  op: "Add"
  input: "RNN/MultiRNNCell_13/Cell0/BasicLSTMCell/Linear/MatMul"
  input: "RNN/MultiRNNCell/Cell0/BasicLSTMCell/Linear/Bias/read"
  attr {
    key: "T"
    value {
      type: DT_FLOAT
    }
  }
  attr {
    key: "_output_shapes"
    value {
      list {
        shape {
          dim {
            size: -1
          }
          dim {
            size: 20
          }
        }
      }
    }
  }
}
node {
  name: "RNN/MultiRNNCell_13/Cell0/BasicLSTMCell/split/split_dim"
  op: "Const"
  attr {
    key: "_output_shapes"
    value {
      list {
        shape {
        }
      }
    }
  }
  attr {
    key: "dtype"
    value {
      type: DT_INT32
    }
  }
  attr {
    key: "value"
    value {
      tensor {
        dtype: DT_INT32
        tensor_shape {
        }
        int_val: 1
      }
    }
  }
}
node {
  name: "RNN/MultiRNNCell_13/Cell0/BasicLSTMCell/split"
  op: "Split"
  input: "RNN/MultiRNNCell_13/Cell0/BasicLSTMCell/split/split_dim"
  input: "RNN/MultiRNNCell_13/Cell0/BasicLSTMCell/add"
  attr {
    key: "T"
    value {
      type: DT_FLOAT
    }
  }
  attr {
    key: "_output_shapes"
    value {
      list {
        shape {
          dim {
            size: -1
          }
          dim {
            size: 5
          }
        }
        shape {
          dim {
            size: -1
          }
          dim {
            size: 5
          }
        }
        shape {
          dim {
            size: -1
          }
          dim {
            size: 5
          }
        }
        shape {
          dim {
            size: -1
          }
          dim {
            size: 5
          }
        }
      }
    }
  }
  attr {
    key: "num_split"
    value {
      i: 4
    }
  }
}
node {
  name: "RNN/MultiRNNCell_13/Cell0/BasicLSTMCell/add_1/y"
  op: "Const"
  attr {
    key: "_output_shapes"
    value {
      list {
        shape {
        }
      }
    }
  }
  attr {
    key: "dtype"
    value {
      type: DT_FLOAT
    }
  }
  attr {
    key: "value"
    value {
      tensor {
        dtype: DT_FLOAT
        tensor_shape {
        }
        float_val: 1.0
      }
    }
  }
}
node {
  name: "RNN/MultiRNNCell_13/Cell0/BasicLSTMCell/add_1"
  op: "Add"
  input: "RNN/MultiRNNCell_13/Cell0/BasicLSTMCell/split:2"
  input: "RNN/MultiRNNCell_13/Cell0/BasicLSTMCell/add_1/y"
  attr {
    key: "T"
    value {
      type: DT_FLOAT
    }
  }
  attr {
    key: "_output_shapes"
    value {
      list {
        shape {
          dim {
            size: -1
          }
          dim {
            size: 5
          }
        }
      }
    }
  }
}
node {
  name: "RNN/MultiRNNCell_13/Cell0/BasicLSTMCell/Sigmoid"
  op: "Sigmoid"
  input: "RNN/MultiRNNCell_13/Cell0/BasicLSTMCell/add_1"
  attr {
    key: "T"
    value {
      type: DT_FLOAT
    }
  }
  attr {
    key: "_output_shapes"
    value {
      list {
        shape {
          dim {
            size: -1
          }
          dim {
            size: 5
          }
        }
      }
    }
  }
}
node {
  name: "RNN/MultiRNNCell_13/Cell0/BasicLSTMCell/mul"
  op: "Mul"
  input: "RNN/MultiRNNCell_12/Cell0/BasicLSTMCell/add_2"
  input: "RNN/MultiRNNCell_13/Cell0/BasicLSTMCell/Sigmoid"
  attr {
    key: "T"
    value {
      type: DT_FLOAT
    }
  }
  attr {
    key: "_output_shapes"
    value {
      list {
        shape {
          dim {
            size: -1
          }
          dim {
            size: 5
          }
        }
      }
    }
  }
}
node {
  name: "RNN/MultiRNNCell_13/Cell0/BasicLSTMCell/Sigmoid_1"
  op: "Sigmoid"
  input: "RNN/MultiRNNCell_13/Cell0/BasicLSTMCell/split"
  attr {
    key: "T"
    value {
      type: DT_FLOAT
    }
  }
  attr {
    key: "_output_shapes"
    value {
      list {
        shape {
          dim {
            size: -1
          }
          dim {
            size: 5
          }
        }
      }
    }
  }
}
node {
  name: "RNN/MultiRNNCell_13/Cell0/BasicLSTMCell/Tanh"
  op: "Tanh"
  input: "RNN/MultiRNNCell_13/Cell0/BasicLSTMCell/split:1"
  attr {
    key: "T"
    value {
      type: DT_FLOAT
    }
  }
  attr {
    key: "_output_shapes"
    value {
      list {
        shape {
          dim {
            size: -1
          }
          dim {
            size: 5
          }
        }
      }
    }
  }
}
node {
  name: "RNN/MultiRNNCell_13/Cell0/BasicLSTMCell/mul_1"
  op: "Mul"
  input: "RNN/MultiRNNCell_13/Cell0/BasicLSTMCell/Sigmoid_1"
  input: "RNN/MultiRNNCell_13/Cell0/BasicLSTMCell/Tanh"
  attr {
    key: "T"
    value {
      type: DT_FLOAT
    }
  }
  attr {
    key: "_output_shapes"
    value {
      list {
        shape {
          dim {
            size: -1
          }
          dim {
            size: 5
          }
        }
      }
    }
  }
}
node {
  name: "RNN/MultiRNNCell_13/Cell0/BasicLSTMCell/add_2"
  op: "Add"
  input: "RNN/MultiRNNCell_13/Cell0/BasicLSTMCell/mul"
  input: "RNN/MultiRNNCell_13/Cell0/BasicLSTMCell/mul_1"
  attr {
    key: "T"
    value {
      type: DT_FLOAT
    }
  }
  attr {
    key: "_output_shapes"
    value {
      list {
        shape {
          dim {
            size: -1
          }
          dim {
            size: 5
          }
        }
      }
    }
  }
}
node {
  name: "RNN/MultiRNNCell_13/Cell0/BasicLSTMCell/Tanh_1"
  op: "Tanh"
  input: "RNN/MultiRNNCell_13/Cell0/BasicLSTMCell/add_2"
  attr {
    key: "T"
    value {
      type: DT_FLOAT
    }
  }
  attr {
    key: "_output_shapes"
    value {
      list {
        shape {
          dim {
            size: -1
          }
          dim {
            size: 5
          }
        }
      }
    }
  }
}
node {
  name: "RNN/MultiRNNCell_13/Cell0/BasicLSTMCell/Sigmoid_2"
  op: "Sigmoid"
  input: "RNN/MultiRNNCell_13/Cell0/BasicLSTMCell/split:3"
  attr {
    key: "T"
    value {
      type: DT_FLOAT
    }
  }
  attr {
    key: "_output_shapes"
    value {
      list {
        shape {
          dim {
            size: -1
          }
          dim {
            size: 5
          }
        }
      }
    }
  }
}
node {
  name: "RNN/MultiRNNCell_13/Cell0/BasicLSTMCell/mul_2"
  op: "Mul"
  input: "RNN/MultiRNNCell_13/Cell0/BasicLSTMCell/Tanh_1"
  input: "RNN/MultiRNNCell_13/Cell0/BasicLSTMCell/Sigmoid_2"
  attr {
    key: "T"
    value {
      type: DT_FLOAT
    }
  }
  attr {
    key: "_output_shapes"
    value {
      list {
        shape {
          dim {
            size: -1
          }
          dim {
            size: 5
          }
        }
      }
    }
  }
}
node {
  name: "RNN/MultiRNNCell_14/Cell0/BasicLSTMCell/Linear/concat/concat_dim"
  op: "Const"
  attr {
    key: "_output_shapes"
    value {
      list {
        shape {
        }
      }
    }
  }
  attr {
    key: "dtype"
    value {
      type: DT_INT32
    }
  }
  attr {
    key: "value"
    value {
      tensor {
        dtype: DT_INT32
        tensor_shape {
        }
        int_val: 1
      }
    }
  }
}
node {
  name: "RNN/MultiRNNCell_14/Cell0/BasicLSTMCell/Linear/concat"
  op: "Concat"
  input: "RNN/MultiRNNCell_14/Cell0/BasicLSTMCell/Linear/concat/concat_dim"
  input: "unpack:14"
  input: "RNN/MultiRNNCell_13/Cell0/BasicLSTMCell/mul_2"
  attr {
    key: "N"
    value {
      i: 2
    }
  }
  attr {
    key: "T"
    value {
      type: DT_FLOAT
    }
  }
  attr {
    key: "_output_shapes"
    value {
      list {
        shape {
          dim {
            size: -1
          }
          dim {
            size: 6
          }
        }
      }
    }
  }
}
node {
  name: "RNN/MultiRNNCell_14/Cell0/BasicLSTMCell/Linear/MatMul"
  op: "MatMul"
  input: "RNN/MultiRNNCell_14/Cell0/BasicLSTMCell/Linear/concat"
  input: "RNN/MultiRNNCell/Cell0/BasicLSTMCell/Linear/Matrix/read"
  attr {
    key: "T"
    value {
      type: DT_FLOAT
    }
  }
  attr {
    key: "_output_shapes"
    value {
      list {
        shape {
          dim {
            size: -1
          }
          dim {
            size: 20
          }
        }
      }
    }
  }
  attr {
    key: "transpose_a"
    value {
      b: false
    }
  }
  attr {
    key: "transpose_b"
    value {
      b: false
    }
  }
}
node {
  name: "RNN/MultiRNNCell_14/Cell0/BasicLSTMCell/add"
  op: "Add"
  input: "RNN/MultiRNNCell_14/Cell0/BasicLSTMCell/Linear/MatMul"
  input: "RNN/MultiRNNCell/Cell0/BasicLSTMCell/Linear/Bias/read"
  attr {
    key: "T"
    value {
      type: DT_FLOAT
    }
  }
  attr {
    key: "_output_shapes"
    value {
      list {
        shape {
          dim {
            size: -1
          }
          dim {
            size: 20
          }
        }
      }
    }
  }
}
node {
  name: "RNN/MultiRNNCell_14/Cell0/BasicLSTMCell/split/split_dim"
  op: "Const"
  attr {
    key: "_output_shapes"
    value {
      list {
        shape {
        }
      }
    }
  }
  attr {
    key: "dtype"
    value {
      type: DT_INT32
    }
  }
  attr {
    key: "value"
    value {
      tensor {
        dtype: DT_INT32
        tensor_shape {
        }
        int_val: 1
      }
    }
  }
}
node {
  name: "RNN/MultiRNNCell_14/Cell0/BasicLSTMCell/split"
  op: "Split"
  input: "RNN/MultiRNNCell_14/Cell0/BasicLSTMCell/split/split_dim"
  input: "RNN/MultiRNNCell_14/Cell0/BasicLSTMCell/add"
  attr {
    key: "T"
    value {
      type: DT_FLOAT
    }
  }
  attr {
    key: "_output_shapes"
    value {
      list {
        shape {
          dim {
            size: -1
          }
          dim {
            size: 5
          }
        }
        shape {
          dim {
            size: -1
          }
          dim {
            size: 5
          }
        }
        shape {
          dim {
            size: -1
          }
          dim {
            size: 5
          }
        }
        shape {
          dim {
            size: -1
          }
          dim {
            size: 5
          }
        }
      }
    }
  }
  attr {
    key: "num_split"
    value {
      i: 4
    }
  }
}
node {
  name: "RNN/MultiRNNCell_14/Cell0/BasicLSTMCell/add_1/y"
  op: "Const"
  attr {
    key: "_output_shapes"
    value {
      list {
        shape {
        }
      }
    }
  }
  attr {
    key: "dtype"
    value {
      type: DT_FLOAT
    }
  }
  attr {
    key: "value"
    value {
      tensor {
        dtype: DT_FLOAT
        tensor_shape {
        }
        float_val: 1.0
      }
    }
  }
}
node {
  name: "RNN/MultiRNNCell_14/Cell0/BasicLSTMCell/add_1"
  op: "Add"
  input: "RNN/MultiRNNCell_14/Cell0/BasicLSTMCell/split:2"
  input: "RNN/MultiRNNCell_14/Cell0/BasicLSTMCell/add_1/y"
  attr {
    key: "T"
    value {
      type: DT_FLOAT
    }
  }
  attr {
    key: "_output_shapes"
    value {
      list {
        shape {
          dim {
            size: -1
          }
          dim {
            size: 5
          }
        }
      }
    }
  }
}
node {
  name: "RNN/MultiRNNCell_14/Cell0/BasicLSTMCell/Sigmoid"
  op: "Sigmoid"
  input: "RNN/MultiRNNCell_14/Cell0/BasicLSTMCell/add_1"
  attr {
    key: "T"
    value {
      type: DT_FLOAT
    }
  }
  attr {
    key: "_output_shapes"
    value {
      list {
        shape {
          dim {
            size: -1
          }
          dim {
            size: 5
          }
        }
      }
    }
  }
}
node {
  name: "RNN/MultiRNNCell_14/Cell0/BasicLSTMCell/mul"
  op: "Mul"
  input: "RNN/MultiRNNCell_13/Cell0/BasicLSTMCell/add_2"
  input: "RNN/MultiRNNCell_14/Cell0/BasicLSTMCell/Sigmoid"
  attr {
    key: "T"
    value {
      type: DT_FLOAT
    }
  }
  attr {
    key: "_output_shapes"
    value {
      list {
        shape {
          dim {
            size: -1
          }
          dim {
            size: 5
          }
        }
      }
    }
  }
}
node {
  name: "RNN/MultiRNNCell_14/Cell0/BasicLSTMCell/Sigmoid_1"
  op: "Sigmoid"
  input: "RNN/MultiRNNCell_14/Cell0/BasicLSTMCell/split"
  attr {
    key: "T"
    value {
      type: DT_FLOAT
    }
  }
  attr {
    key: "_output_shapes"
    value {
      list {
        shape {
          dim {
            size: -1
          }
          dim {
            size: 5
          }
        }
      }
    }
  }
}
node {
  name: "RNN/MultiRNNCell_14/Cell0/BasicLSTMCell/Tanh"
  op: "Tanh"
  input: "RNN/MultiRNNCell_14/Cell0/BasicLSTMCell/split:1"
  attr {
    key: "T"
    value {
      type: DT_FLOAT
    }
  }
  attr {
    key: "_output_shapes"
    value {
      list {
        shape {
          dim {
            size: -1
          }
          dim {
            size: 5
          }
        }
      }
    }
  }
}
node {
  name: "RNN/MultiRNNCell_14/Cell0/BasicLSTMCell/mul_1"
  op: "Mul"
  input: "RNN/MultiRNNCell_14/Cell0/BasicLSTMCell/Sigmoid_1"
  input: "RNN/MultiRNNCell_14/Cell0/BasicLSTMCell/Tanh"
  attr {
    key: "T"
    value {
      type: DT_FLOAT
    }
  }
  attr {
    key: "_output_shapes"
    value {
      list {
        shape {
          dim {
            size: -1
          }
          dim {
            size: 5
          }
        }
      }
    }
  }
}
node {
  name: "RNN/MultiRNNCell_14/Cell0/BasicLSTMCell/add_2"
  op: "Add"
  input: "RNN/MultiRNNCell_14/Cell0/BasicLSTMCell/mul"
  input: "RNN/MultiRNNCell_14/Cell0/BasicLSTMCell/mul_1"
  attr {
    key: "T"
    value {
      type: DT_FLOAT
    }
  }
  attr {
    key: "_output_shapes"
    value {
      list {
        shape {
          dim {
            size: -1
          }
          dim {
            size: 5
          }
        }
      }
    }
  }
}
node {
  name: "RNN/MultiRNNCell_14/Cell0/BasicLSTMCell/Tanh_1"
  op: "Tanh"
  input: "RNN/MultiRNNCell_14/Cell0/BasicLSTMCell/add_2"
  attr {
    key: "T"
    value {
      type: DT_FLOAT
    }
  }
  attr {
    key: "_output_shapes"
    value {
      list {
        shape {
          dim {
            size: -1
          }
          dim {
            size: 5
          }
        }
      }
    }
  }
}
node {
  name: "RNN/MultiRNNCell_14/Cell0/BasicLSTMCell/Sigmoid_2"
  op: "Sigmoid"
  input: "RNN/MultiRNNCell_14/Cell0/BasicLSTMCell/split:3"
  attr {
    key: "T"
    value {
      type: DT_FLOAT
    }
  }
  attr {
    key: "_output_shapes"
    value {
      list {
        shape {
          dim {
            size: -1
          }
          dim {
            size: 5
          }
        }
      }
    }
  }
}
node {
  name: "RNN/MultiRNNCell_14/Cell0/BasicLSTMCell/mul_2"
  op: "Mul"
  input: "RNN/MultiRNNCell_14/Cell0/BasicLSTMCell/Tanh_1"
  input: "RNN/MultiRNNCell_14/Cell0/BasicLSTMCell/Sigmoid_2"
  attr {
    key: "T"
    value {
      type: DT_FLOAT
    }
  }
  attr {
    key: "_output_shapes"
    value {
      list {
        shape {
          dim {
            size: -1
          }
          dim {
            size: 5
          }
        }
      }
    }
  }
}
node {
  name: "RNN/MultiRNNCell_15/Cell0/BasicLSTMCell/Linear/concat/concat_dim"
  op: "Const"
  attr {
    key: "_output_shapes"
    value {
      list {
        shape {
        }
      }
    }
  }
  attr {
    key: "dtype"
    value {
      type: DT_INT32
    }
  }
  attr {
    key: "value"
    value {
      tensor {
        dtype: DT_INT32
        tensor_shape {
        }
        int_val: 1
      }
    }
  }
}
node {
  name: "RNN/MultiRNNCell_15/Cell0/BasicLSTMCell/Linear/concat"
  op: "Concat"
  input: "RNN/MultiRNNCell_15/Cell0/BasicLSTMCell/Linear/concat/concat_dim"
  input: "unpack:15"
  input: "RNN/MultiRNNCell_14/Cell0/BasicLSTMCell/mul_2"
  attr {
    key: "N"
    value {
      i: 2
    }
  }
  attr {
    key: "T"
    value {
      type: DT_FLOAT
    }
  }
  attr {
    key: "_output_shapes"
    value {
      list {
        shape {
          dim {
            size: -1
          }
          dim {
            size: 6
          }
        }
      }
    }
  }
}
node {
  name: "RNN/MultiRNNCell_15/Cell0/BasicLSTMCell/Linear/MatMul"
  op: "MatMul"
  input: "RNN/MultiRNNCell_15/Cell0/BasicLSTMCell/Linear/concat"
  input: "RNN/MultiRNNCell/Cell0/BasicLSTMCell/Linear/Matrix/read"
  attr {
    key: "T"
    value {
      type: DT_FLOAT
    }
  }
  attr {
    key: "_output_shapes"
    value {
      list {
        shape {
          dim {
            size: -1
          }
          dim {
            size: 20
          }
        }
      }
    }
  }
  attr {
    key: "transpose_a"
    value {
      b: false
    }
  }
  attr {
    key: "transpose_b"
    value {
      b: false
    }
  }
}
node {
  name: "RNN/MultiRNNCell_15/Cell0/BasicLSTMCell/add"
  op: "Add"
  input: "RNN/MultiRNNCell_15/Cell0/BasicLSTMCell/Linear/MatMul"
  input: "RNN/MultiRNNCell/Cell0/BasicLSTMCell/Linear/Bias/read"
  attr {
    key: "T"
    value {
      type: DT_FLOAT
    }
  }
  attr {
    key: "_output_shapes"
    value {
      list {
        shape {
          dim {
            size: -1
          }
          dim {
            size: 20
          }
        }
      }
    }
  }
}
node {
  name: "RNN/MultiRNNCell_15/Cell0/BasicLSTMCell/split/split_dim"
  op: "Const"
  attr {
    key: "_output_shapes"
    value {
      list {
        shape {
        }
      }
    }
  }
  attr {
    key: "dtype"
    value {
      type: DT_INT32
    }
  }
  attr {
    key: "value"
    value {
      tensor {
        dtype: DT_INT32
        tensor_shape {
        }
        int_val: 1
      }
    }
  }
}
node {
  name: "RNN/MultiRNNCell_15/Cell0/BasicLSTMCell/split"
  op: "Split"
  input: "RNN/MultiRNNCell_15/Cell0/BasicLSTMCell/split/split_dim"
  input: "RNN/MultiRNNCell_15/Cell0/BasicLSTMCell/add"
  attr {
    key: "T"
    value {
      type: DT_FLOAT
    }
  }
  attr {
    key: "_output_shapes"
    value {
      list {
        shape {
          dim {
            size: -1
          }
          dim {
            size: 5
          }
        }
        shape {
          dim {
            size: -1
          }
          dim {
            size: 5
          }
        }
        shape {
          dim {
            size: -1
          }
          dim {
            size: 5
          }
        }
        shape {
          dim {
            size: -1
          }
          dim {
            size: 5
          }
        }
      }
    }
  }
  attr {
    key: "num_split"
    value {
      i: 4
    }
  }
}
node {
  name: "RNN/MultiRNNCell_15/Cell0/BasicLSTMCell/add_1/y"
  op: "Const"
  attr {
    key: "_output_shapes"
    value {
      list {
        shape {
        }
      }
    }
  }
  attr {
    key: "dtype"
    value {
      type: DT_FLOAT
    }
  }
  attr {
    key: "value"
    value {
      tensor {
        dtype: DT_FLOAT
        tensor_shape {
        }
        float_val: 1.0
      }
    }
  }
}
node {
  name: "RNN/MultiRNNCell_15/Cell0/BasicLSTMCell/add_1"
  op: "Add"
  input: "RNN/MultiRNNCell_15/Cell0/BasicLSTMCell/split:2"
  input: "RNN/MultiRNNCell_15/Cell0/BasicLSTMCell/add_1/y"
  attr {
    key: "T"
    value {
      type: DT_FLOAT
    }
  }
  attr {
    key: "_output_shapes"
    value {
      list {
        shape {
          dim {
            size: -1
          }
          dim {
            size: 5
          }
        }
      }
    }
  }
}
node {
  name: "RNN/MultiRNNCell_15/Cell0/BasicLSTMCell/Sigmoid"
  op: "Sigmoid"
  input: "RNN/MultiRNNCell_15/Cell0/BasicLSTMCell/add_1"
  attr {
    key: "T"
    value {
      type: DT_FLOAT
    }
  }
  attr {
    key: "_output_shapes"
    value {
      list {
        shape {
          dim {
            size: -1
          }
          dim {
            size: 5
          }
        }
      }
    }
  }
}
node {
  name: "RNN/MultiRNNCell_15/Cell0/BasicLSTMCell/mul"
  op: "Mul"
  input: "RNN/MultiRNNCell_14/Cell0/BasicLSTMCell/add_2"
  input: "RNN/MultiRNNCell_15/Cell0/BasicLSTMCell/Sigmoid"
  attr {
    key: "T"
    value {
      type: DT_FLOAT
    }
  }
  attr {
    key: "_output_shapes"
    value {
      list {
        shape {
          dim {
            size: -1
          }
          dim {
            size: 5
          }
        }
      }
    }
  }
}
node {
  name: "RNN/MultiRNNCell_15/Cell0/BasicLSTMCell/Sigmoid_1"
  op: "Sigmoid"
  input: "RNN/MultiRNNCell_15/Cell0/BasicLSTMCell/split"
  attr {
    key: "T"
    value {
      type: DT_FLOAT
    }
  }
  attr {
    key: "_output_shapes"
    value {
      list {
        shape {
          dim {
            size: -1
          }
          dim {
            size: 5
          }
        }
      }
    }
  }
}
node {
  name: "RNN/MultiRNNCell_15/Cell0/BasicLSTMCell/Tanh"
  op: "Tanh"
  input: "RNN/MultiRNNCell_15/Cell0/BasicLSTMCell/split:1"
  attr {
    key: "T"
    value {
      type: DT_FLOAT
    }
  }
  attr {
    key: "_output_shapes"
    value {
      list {
        shape {
          dim {
            size: -1
          }
          dim {
            size: 5
          }
        }
      }
    }
  }
}
node {
  name: "RNN/MultiRNNCell_15/Cell0/BasicLSTMCell/mul_1"
  op: "Mul"
  input: "RNN/MultiRNNCell_15/Cell0/BasicLSTMCell/Sigmoid_1"
  input: "RNN/MultiRNNCell_15/Cell0/BasicLSTMCell/Tanh"
  attr {
    key: "T"
    value {
      type: DT_FLOAT
    }
  }
  attr {
    key: "_output_shapes"
    value {
      list {
        shape {
          dim {
            size: -1
          }
          dim {
            size: 5
          }
        }
      }
    }
  }
}
node {
  name: "RNN/MultiRNNCell_15/Cell0/BasicLSTMCell/add_2"
  op: "Add"
  input: "RNN/MultiRNNCell_15/Cell0/BasicLSTMCell/mul"
  input: "RNN/MultiRNNCell_15/Cell0/BasicLSTMCell/mul_1"
  attr {
    key: "T"
    value {
      type: DT_FLOAT
    }
  }
  attr {
    key: "_output_shapes"
    value {
      list {
        shape {
          dim {
            size: -1
          }
          dim {
            size: 5
          }
        }
      }
    }
  }
}
node {
  name: "RNN/MultiRNNCell_15/Cell0/BasicLSTMCell/Tanh_1"
  op: "Tanh"
  input: "RNN/MultiRNNCell_15/Cell0/BasicLSTMCell/add_2"
  attr {
    key: "T"
    value {
      type: DT_FLOAT
    }
  }
  attr {
    key: "_output_shapes"
    value {
      list {
        shape {
          dim {
            size: -1
          }
          dim {
            size: 5
          }
        }
      }
    }
  }
}
node {
  name: "RNN/MultiRNNCell_15/Cell0/BasicLSTMCell/Sigmoid_2"
  op: "Sigmoid"
  input: "RNN/MultiRNNCell_15/Cell0/BasicLSTMCell/split:3"
  attr {
    key: "T"
    value {
      type: DT_FLOAT
    }
  }
  attr {
    key: "_output_shapes"
    value {
      list {
        shape {
          dim {
            size: -1
          }
          dim {
            size: 5
          }
        }
      }
    }
  }
}
node {
  name: "RNN/MultiRNNCell_15/Cell0/BasicLSTMCell/mul_2"
  op: "Mul"
  input: "RNN/MultiRNNCell_15/Cell0/BasicLSTMCell/Tanh_1"
…
      list {
        shape {
          dim {
            size: 5
          }
          dim {
            size: 1
          }
        }
      }
    }
  }
}
node {
  name: "OptimizeLoss/Const_3"
  op: "Const"
  attr {
    key: "_class"
    value {
      list {
        s: "loc:@linear_regression/bias"
      }
    }
  }
  attr {
    key: "_output_shapes"
    value {
      list {
        shape {
          dim {
            size: 1
          }
        }
      }
    }
  }
  attr {
    key: "dtype"
    value {
      type: DT_FLOAT
    }
  }
  attr {
    key: "value"
    value {
      tensor {
        dtype: DT_FLOAT
        tensor_shape {
          dim {
            size: 1
          }
        }
        float_val: 0.10000000149011612
      }
    }
  }
}
node {
  name: "OptimizeLoss/linear_regression/bias/Adagrad"
  op: "Variable"
  attr {
    key: "_class"
    value {
      list {
        s: "loc:@linear_regression/bias"
      }
    }
  }
  attr {
    key: "_output_shapes"
    value {
      list {
        shape {
          dim {
            size: 1
          }
        }
      }
    }
  }
  attr {
    key: "container"
    value {
      s: ""
    }
  }
  attr {
    key: "dtype"
    value {
      type: DT_FLOAT
    }
  }
  attr {
    key: "shape"
    value {
      shape {
        dim {
          size: 1
        }
      }
    }
  }
  attr {
    key: "shared_name"
    value {
      s: ""
    }
  }
}
node {
  name: "OptimizeLoss/linear_regression/bias/Adagrad/Assign"
  op: "Assign"
  input: "OptimizeLoss/linear_regression/bias/Adagrad"
  input: "OptimizeLoss/Const_3"
  attr {
    key: "T"
    value {
      type: DT_FLOAT
    }
  }
  attr {
    key: "_class"
    value {
      list {
        s: "loc:@linear_regression/bias"
      }
    }
  }
  attr {
    key: "_output_shapes"
    value {
      list {
        shape {
          dim {
            size: 1
          }
        }
      }
    }
  }
  attr {
    key: "use_locking"
    value {
      b: true
    }
  }
  attr {
    key: "validate_shape"
    value {
      b: true
    }
  }
}
node {
  name: "OptimizeLoss/linear_regression/bias/Adagrad/read"
  op: "Identity"
  input: "OptimizeLoss/linear_regression/bias/Adagrad"
  attr {
    key: "T"
    value {
      type: DT_FLOAT
    }
  }
  attr {
    key: "_class"
    value {
      list {
        s: "loc:@linear_regression/bias"
      }
    }
  }
  attr {
    key: "_output_shapes"
    value {
      list {
        shape {
          dim {
            size: 1
          }
        }
      }
    }
  }
}
node {
  name: "OptimizeLoss/train/update_RNN/MultiRNNCell/Cell0/BasicLSTMCell/Linear/Matrix/ApplyAdagrad"
  op: "ApplyAdagrad"
  input: "RNN/MultiRNNCell/Cell0/BasicLSTMCell/Linear/Matrix"
  input: "OptimizeLoss/RNN/MultiRNNCell/Cell0/BasicLSTMCell/Linear/Matrix/Adagrad"
  input: "OptimizeLoss/learning_rate/read"
  input: "OptimizeLoss/gradients/AddN_30"
  attr {
    key: "T"
    value {
      type: DT_FLOAT
    }
  }
  attr {
    key: "_class"
    value {
      list {
        s: "loc:@RNN/MultiRNNCell/Cell0/BasicLSTMCell/Linear/Matrix"
      }
    }
  }
  attr {
    key: "_output_shapes"
    value {
      list {
        shape {
          dim {
            size: 6
          }
          dim {
            size: 20
          }
        }
      }
    }
  }
  attr {
    key: "use_locking"
    value {
      b: false
    }
  }
}
node {
  name: "OptimizeLoss/train/update_RNN/MultiRNNCell/Cell0/BasicLSTMCell/Linear/Bias/ApplyAdagrad"
  op: "ApplyAdagrad"
  input: "RNN/MultiRNNCell/Cell0/BasicLSTMCell/Linear/Bias"
  input: "OptimizeLoss/RNN/MultiRNNCell/Cell0/BasicLSTMCell/Linear/Bias/Adagrad"
  input: "OptimizeLoss/learning_rate/read"
  input: "OptimizeLoss/gradients/AddN_29"
  attr {
    key: "T"
    value {
      type: DT_FLOAT
    }
  }
  attr {
    key: "_class"
    value {
      list {
        s: "loc:@RNN/MultiRNNCell/Cell0/BasicLSTMCell/Linear/Bias"
      }
    }
  }
  attr {
    key: "_output_shapes"
    value {
      list {
        shape {
          dim {
            size: 20
          }
        }
      }
    }
  }
  attr {
    key: "use_locking"
    value {
      b: false
    }
  }
}
node {
  name: "OptimizeLoss/train/update_linear_regression/weights/ApplyAdagrad"
  op: "ApplyAdagrad"
  input: "linear_regression/weights"
  input: "OptimizeLoss/linear_regression/weights/Adagrad"
  input: "OptimizeLoss/learning_rate/read"
  input: "OptimizeLoss/gradients/linear_regression/mean_squared_error_regressor/xw_plus_b/MatMul_grad/tuple/control_dependency_1"
  attr {
    key: "T"
    value {
      type: DT_FLOAT
    }
  }
  attr {
    key: "_class"
    value {
      list {
        s: "loc:@linear_regression/weights"
      }
    }
  }
  attr {
    key: "_output_shapes"
    value {
      list {
        shape {
          dim {
            size: 5
          }
          dim {
            size: 1
          }
        }
      }
    }
  }
  attr {
    key: "use_locking"
    value {
      b: false
    }
  }
}
node {
  name: "OptimizeLoss/train/update_linear_regression/bias/ApplyAdagrad"
  op: "ApplyAdagrad"
  input: "linear_regression/bias"
  input: "OptimizeLoss/linear_regression/bias/Adagrad"
  input: "OptimizeLoss/learning_rate/read"
  input: "OptimizeLoss/gradients/linear_regression/mean_squared_error_regressor/xw_plus_b_grad/tuple/control_dependency_1"
  attr {
    key: "T"
    value {
      type: DT_FLOAT
    }
  }
  attr {
    key: "_class"
    value {
      list {
        s: "loc:@linear_regression/bias"
      }
    }
  }
  attr {
    key: "_output_shapes"
    value {
      list {
        shape {
          dim {
            size: 1
          }
        }
      }
    }
  }
  attr {
    key: "use_locking"
    value {
      b: false
    }
  }
}
node {
  name: "OptimizeLoss/train/update"
  op: "NoOp"
  input: "^OptimizeLoss/train/update_RNN/MultiRNNCell/Cell0/BasicLSTMCell/Linear/Matrix/ApplyAdagrad"
  input: "^OptimizeLoss/train/update_RNN/MultiRNNCell/Cell0/BasicLSTMCell/Linear/Bias/ApplyAdagrad"
  input: "^OptimizeLoss/train/update_linear_regression/weights/ApplyAdagrad"
  input: "^OptimizeLoss/train/update_linear_regression/bias/ApplyAdagrad"
}
node {
  name: "OptimizeLoss/train/value"
  op: "Const"
  input: "^OptimizeLoss/train/update"
  attr {
    key: "_class"
    value {
      list {
        s: "loc:@global_step"
      }
    }
  }
  attr {
    key: "_output_shapes"
    value {
      list {
        shape {
        }
      }
    }
  }
  attr {
    key: "dtype"
    value {
      type: DT_INT64
    }
  }
  attr {
    key: "value"
    value {
      tensor {
        dtype: DT_INT64
        tensor_shape {
        }
        int64_val: 1
      }
    }
  }
}
node {
  name: "OptimizeLoss/train"
  op: "AssignAdd"
  input: "global_step"
  input: "OptimizeLoss/train/value"
  attr {
    key: "T"
    value {
      type: DT_INT64
    }
  }
  attr {
    key: "_class"
    value {
      list {
        s: "loc:@global_step"
      }
    }
  }
  attr {
    key: "_output_shapes"
    value {
      list {
        shape {
        }
      }
    }
  }
  attr {
    key: "use_locking"
    value {
      b: false
    }
  }
}
node {
  name: "OptimizeLoss/control_dependency"
  op: "Identity"
  input: "linear_regression/mean_squared_error_regressor/mean_squared_error/value"
  input: "^OptimizeLoss/train"
  attr {
    key: "T"
    value {
      type: DT_FLOAT
    }
  }
  attr {
    key: "_class"
    value {
      list {
        s: "loc:@linear_regression/mean_squared_error_regressor/mean_squared_error/value"
      }
    }
  }
  attr {
    key: "_output_shapes"
    value {
      list {
        shape {
        }
      }
    }
  }
}
node {
  name: "init"
  op: "NoOp"
  input: "^global_step/Assign"
  input: "^RNN/MultiRNNCell/Cell0/BasicLSTMCell/Linear/Matrix/Assign"
  input: "^RNN/MultiRNNCell/Cell0/BasicLSTMCell/Linear/Bias/Assign"
  input: "^linear_regression/weights/Assign"
  input: "^linear_regression/bias/Assign"
  input: "^OptimizeLoss/learning_rate/Assign"
  input: "^OptimizeLoss/RNN/MultiRNNCell/Cell0/BasicLSTMCell/Linear/Matrix/Adagrad/Assign"
  input: "^OptimizeLoss/RNN/MultiRNNCell/Cell0/BasicLSTMCell/Linear/Bias/Adagrad/Assign"
  input: "^OptimizeLoss/linear_regression/weights/Adagrad/Assign"
  input: "^OptimizeLoss/linear_regression/bias/Adagrad/Assign"
}
node {
  name: "init_1"
  op: "NoOp"
}
node {
  name: "group_deps"
  op: "NoOp"
  input: "^init"
  input: "^init_1"
}
node {
  name: "report_uninitialized_variables/IsVariableInitialized"
  op: "IsVariableInitialized"
  input: "global_step"
  attr {
    key: "_class"
    value {
      list {
        s: "loc:@global_step"
      }
    }
  }
  attr {
    key: "_output_shapes"
    value {
      list {
        shape {
        }
      }
    }
  }
  attr {
    key: "dtype"
    value {
      type: DT_INT64
    }
  }
}
node {
  name: "report_uninitialized_variables/IsVariableInitialized_1"
  op: "IsVariableInitialized"
  input: "RNN/MultiRNNCell/Cell0/BasicLSTMCell/Linear/Matrix"
  attr {
    key: "_class"
    value {
      list {
        s: "loc:@RNN/MultiRNNCell/Cell0/BasicLSTMCell/Linear/Matrix"
      }
    }
  }
  attr {
    key: "_output_shapes"
    value {
      list {
        shape {
        }
      }
    }
  }
  attr {
    key: "dtype"
    value {
      type: DT_FLOAT
    }
  }
}
node {
  name: "report_uninitialized_variables/IsVariableInitialized_2"
  op: "IsVariableInitialized"
  input: "RNN/MultiRNNCell/Cell0/BasicLSTMCell/Linear/Bias"
  attr {
    key: "_class"
    value {
      list {
        s: "loc:@RNN/MultiRNNCell/Cell0/BasicLSTMCell/Linear/Bias"
      }
    }
  }
  attr {
    key: "_output_shapes"
    value {
      list {
        shape {
        }
      }
    }
  }
  attr {
    key: "dtype"
    value {
      type: DT_FLOAT
    }
  }
}
node {
  name: "report_uninitialized_variables/IsVariableInitialized_3"
  op: "IsVariableInitialized"
  input: "linear_regression/weights"
  attr {
    key: "_class"
    value {
      list {
        s: "loc:@linear_regression/weights"
      }
    }
  }
  attr {
    key: "_output_shapes"
    value {
      list {
        shape {
        }
      }
    }
  }
  attr {
    key: "dtype"
    value {
      type: DT_FLOAT
    }
  }
}
node {
  name: "report_uninitialized_variables/IsVariableInitialized_4"
  op: "IsVariableInitialized"
  input: "linear_regression/bias"
  attr {
    key: "_class"
    value {
      list {
        s: "loc:@linear_regression/bias"
      }
    }
  }
  attr {
    key: "_output_shapes"
    value {
      list {
        shape {
        }
      }
    }
  }
  attr {
    key: "dtype"
    value {
      type: DT_FLOAT
    }
  }
}
node {
  name: "report_uninitialized_variables/IsVariableInitialized_5"
  op: "IsVariableInitialized"
  input: "OptimizeLoss/learning_rate"
  attr {
    key: "_class"
    value {
      list {
        s: "loc:@OptimizeLoss/learning_rate"
      }
    }
  }
  attr {
    key: "_output_shapes"
    value {
      list {
        shape {
        }
      }
    }
  }
  attr {
    key: "dtype"
    value {
      type: DT_FLOAT
    }
  }
}
node {
  name: "report_uninitialized_variables/IsVariableInitialized_6"
  op: "IsVariableInitialized"
  input: "OptimizeLoss/RNN/MultiRNNCell/Cell0/BasicLSTMCell/Linear/Matrix/Adagrad"
  attr {
    key: "_class"
    value {
      list {
        s: "loc:@RNN/MultiRNNCell/Cell0/BasicLSTMCell/Linear/Matrix"
      }
    }
  }
  attr {
    key: "_output_shapes"
    value {
      list {
        shape {
        }
      }
    }
  }
  attr {
    key: "dtype"
    value {
      type: DT_FLOAT
    }
  }
}
node {
  name: "report_uninitialized_variables/IsVariableInitialized_7"
  op: "IsVariableInitialized"
  input: "OptimizeLoss/RNN/MultiRNNCell/Cell0/BasicLSTMCell/Linear/Bias/Adagrad"
  attr {
    key: "_class"
    value {
      list {
        s: "loc:@RNN/MultiRNNCell/Cell0/BasicLSTMCell/Linear/Bias"
      }
    }
  }
  attr {
    key: "_output_shapes"
    value {
      list {
        shape {
        }
      }
    }
  }
  attr {
    key: "dtype"
    value {
      type: DT_FLOAT
    }
  }
}
node {
  name: "report_uninitialized_variables/IsVariableInitialized_8"
  op: "IsVariableInitialized"
  input: "OptimizeLoss/linear_regression/weights/Adagrad"
  attr {
    key: "_class"
    value {
      list {
        s: "loc:@linear_regression/weights"
      }
    }
  }
  attr {
    key: "_output_shapes"
    value {
      list {
        shape {
        }
      }
    }
  }
  attr {
    key: "dtype"
    value {
      type: DT_FLOAT
    }
  }
}
node {
  name: "report_uninitialized_variables/IsVariableInitialized_9"
  op: "IsVariableInitialized"
  input: "OptimizeLoss/linear_regression/bias/Adagrad"
  attr {
    key: "_class"
    value {
      list {
        s: "loc:@linear_regression/bias"
      }
    }
  }
  attr {
    key: "_output_shapes"
    value {
      list {
        shape {
        }
      }
    }
  }
  attr {
    key: "dtype"
    value {
      type: DT_FLOAT
    }
  }
}
node {
  name: "report_uninitialized_variables/pack"
  op: "Pack"
  input: "report_uninitialized_variables/IsVariableInitialized"
  input: "report_uninitialized_variables/IsVariableInitialized_1"
  input: "report_uninitialized_variables/IsVariableInitialized_2"
  input: "report_uninitialized_variables/IsVariableInitialized_3"
  input: "report_uninitialized_variables/IsVariableInitialized_4"
  input: "report_uninitialized_variables/IsVariableInitialized_5"
  input: "report_uninitialized_variables/IsVariableInitialized_6"
  input: "report_uninitialized_variables/IsVariableInitialized_7"
  input: "report_uninitialized_variables/IsVariableInitialized_8"
  input: "report_uninitialized_variables/IsVariableInitialized_9"
  attr {
    key: "N"
    value {
      i: 10
    }
  }
  attr {
    key: "T"
    value {
      type: DT_BOOL
    }
  }
  attr {
    key: "_output_shapes"
    value {
      list {
        shape {
          dim {
            size: 10
          }
        }
      }
    }
  }
  attr {
    key: "axis"
    value {
      i: 0
    }
  }
}
node {
  name: "report_uninitialized_variables/LogicalNot"
  op: "LogicalNot"
  input: "report_uninitialized_variables/pack"
  attr {
    key: "_output_shapes"
    value {
      list {
        shape {
          dim {
            size: 10
          }
        }
      }
    }
  }
}
node {
  name: "report_uninitialized_variables/Const"
  op: "Const"
  attr {
    key: "_output_shapes"
    value {
      list {
        shape {
          dim {
            size: 10
          }
        }
      }
    }
  }
  attr {
    key: "dtype"
    value {
      type: DT_STRING
    }
  }
  attr {
    key: "value"
    value {
      tensor {
        dtype: DT_STRING
        tensor_shape {
          dim {
            size: 10
          }
        }
        string_val: "global_step"
        string_val: "RNN/MultiRNNCell/Cell0/BasicLSTMCell/Linear/Matrix"
        string_val: "RNN/MultiRNNCell/Cell0/BasicLSTMCell/Linear/Bias"
        string_val: "linear_regression/weights"
        string_val: "linear_regression/bias"
        string_val: "OptimizeLoss/learning_rate"
        string_val: "OptimizeLoss/RNN/MultiRNNCell/Cell0/BasicLSTMCell/Linear/Matrix/Adagrad"
        string_val: "OptimizeLoss/RNN/MultiRNNCell/Cell0/BasicLSTMCell/Linear/Bias/Adagrad"
        string_val: "OptimizeLoss/linear_regression/weights/Adagrad"
        string_val: "OptimizeLoss/linear_regression/bias/Adagrad"
      }
    }
  }
}
node {
  name: "report_uninitialized_variables/boolean_mask/Shape"
  op: "Const"
  attr {
    key: "_output_shapes"
    value {
      list {
        shape {
          dim {
            size: 1
          }
        }
      }
    }
  }
  attr {
    key: "dtype"
    value {
      type: DT_INT32
    }
  }
  attr {
    key: "value"
    value {
      tensor {
        dtype: DT_INT32
        tensor_shape {
          dim {
            size: 1
          }
        }
        int_val: 10
      }
    }
  }
}
node {
  name: "report_uninitialized_variables/boolean_mask/strided_slice/stack"
  op: "Const"
  attr {
    key: "_output_shapes"
    value {
      list {
        shape {
          dim {
            size: 1
          }
        }
      }
    }
  }
  attr {
    key: "dtype"
    value {
      type: DT_INT32
    }
  }
  attr {
    key: "value"
    value {
      tensor {
        dtype: DT_INT32
        tensor_shape {
          dim {
            size: 1
          }
        }
        int_val: 1
      }
    }
  }
}
node {
  name: "report_uninitialized_variables/boolean_mask/strided_slice/stack_1"
  op: "Const"
  attr {
    key: "_output_shapes"
    value {
      list {
        shape {
          dim {
            size: 1
          }
        }
      }
    }
  }
  attr {
    key: "dtype"
    value {
      type: DT_INT32
    }
  }
  attr {
    key: "value"
    value {
      tensor {
        dtype: DT_INT32
        tensor_shape {
          dim {
            size: 1
          }
        }
        int_val: 0
      }
    }
  }
}
node {
  name: "report_uninitialized_variables/boolean_mask/strided_slice/stack_2"
  op: "Const"
  attr {
    key: "_output_shapes"
    value {
      list {
        shape {
          dim {
            size: 1
          }
        }
      }
    }
  }
  attr {
    key: "dtype"
    value {
      type: DT_INT32
    }
  }
  attr {
    key: "value"
    value {
      tensor {
        dtype: DT_INT32
        tensor_shape {
          dim {
            size: 1
          }
        }
        int_val: 1
      }
    }
  }
}
node {
  name: "report_uninitialized_variables/boolean_mask/strided_slice"
  op: "StridedSlice"
  input: "report_uninitialized_variables/boolean_mask/Shape"
  input: "report_uninitialized_variables/boolean_mask/strided_slice/stack"
  input: "report_uninitialized_variables/boolean_mask/strided_slice/stack_1"
  input: "report_uninitialized_variables/boolean_mask/strided_slice/stack_2"
  attr {
    key: "Index"
    value {
      type: DT_INT32
    }
  }
  attr {
    key: "T"
    value {
      type: DT_INT32
    }
  }
  attr {
    key: "_output_shapes"
    value {
      list {
        shape {
          dim {
          }
        }
      }
    }
  }
  attr {
    key: "begin_mask"
    value {
      i: 0
    }
  }
  attr {
    key: "ellipsis_mask"
    value {
      i: 0
    }
  }
  attr {
    key: "end_mask"
    value {
      i: 1
    }
  }
  attr {
    key: "new_axis_mask"
    value {
      i: 0
    }
  }
  attr {
    key: "shrink_axis_mask"
    value {
      i: 0
    }
  }
}
node {
  name: "report_uninitialized_variables/boolean_mask/concat/concat_dim"
  op: "Const"
  attr {
    key: "_output_shapes"
    value {
      list {
        shape {
        }
      }
    }
  }
  attr {
    key: "dtype"
    value {
      type: DT_INT32
    }
  }
  attr {
    key: "value"
    value {
      tensor {
        dtype: DT_INT32
        tensor_shape {
        }
        int_val: 0
      }
    }
  }
}
node {
  name: "report_uninitialized_variables/boolean_mask/concat/values_0"
  op: "Const"
  attr {
    key: "_output_shapes"
    value {
      list {
        shape {
          dim {
            size: 1
          }
        }
      }
    }
  }
  attr {
    key: "dtype"
    value {
      type: DT_INT32
    }
  }
  attr {
    key: "value"
    value {
      tensor {
        dtype: DT_INT32
        tensor_shape {
          dim {
            size: 1
          }
        }
        int_val: -1
      }
    }
  }
}
node {
  name: "report_uninitialized_variables/boolean_mask/concat"
  op: "Concat"
  input: "report_uninitialized_variables/boolean_mask/concat/concat_dim"
  input: "report_uninitialized_variables/boolean_mask/concat/values_0"
  input: "report_uninitialized_variables/boolean_mask/strided_slice"
  attr {
    key: "N"
    value {
      i: 2
    }
  }
  attr {
    key: "T"
    value {
      type: DT_INT32
    }
  }
  attr {
    key: "_output_shapes"
    value {
      list {
        shape {
          dim {
            size: 1
          }
        }
      }
    }
  }
}
node {
  name: "report_uninitialized_variables/boolean_mask/Reshape"
  op: "Reshape"
  input: "report_uninitialized_variables/Const"
  input: "report_uninitialized_variables/boolean_mask/concat"
  attr {
    key: "T"
    value {
      type: DT_STRING
    }
  }
  attr {
    key: "Tshape"
    value {
      type: DT_INT32
    }
  }
  attr {
    key: "_output_shapes"
    value {
      list {
        shape {
          dim {
            size: 10
          }
        }
      }
    }
  }
}
node {
  name: "report_uninitialized_variables/boolean_mask/Reshape_1/shape"
  op: "Const"
  attr {
    key: "_output_shapes"
    value {
      list {
        shape {
          dim {
            size: 1
          }
        }
      }
    }
  }
  attr {
    key: "dtype"
    value {
      type: DT_INT32
    }
  }
  attr {
    key: "value"
    value {
      tensor {
        dtype: DT_INT32
        tensor_shape {
          dim {
            size: 1
          }
        }
        int_val: -1
      }
    }
  }
}
node {
  name: "report_uninitialized_variables/boolean_mask/Reshape_1"
  op: "Reshape"
  input: "report_uninitialized_variables/LogicalNot"
  input: "report_uninitialized_variables/boolean_mask/Reshape_1/shape"
  attr {
    key: "T"
    value {
      type: DT_BOOL
    }
  }
  attr {
    key: "Tshape"
    value {
      type: DT_INT32
    }
  }
  attr {
    key: "_output_shapes"
    value {
      list {
        shape {
          dim {
            size: 10
          }
        }
      }
    }
  }
}
node {
  name: "report_uninitialized_variables/boolean_mask/Where"
  op: "Where"
  input: "report_uninitialized_variables/boolean_mask/Reshape_1"
  attr {
    key: "_output_shapes"
    value {
      list {
        shape {
          dim {
            size: -1
          }
          dim {
            size: 1
          }
        }
      }
    }
  }
}
node {
  name: "report_uninitialized_variables/boolean_mask/Squeeze"
  op: "Squeeze"
  input: "report_uninitialized_variables/boolean_mask/Where"
  attr {
    key: "T"
    value {
      type: DT_INT64
    }
  }
  attr {
    key: "_output_shapes"
    value {
      list {
        shape {
          dim {
            size: -1
          }
        }
      }
    }
  }
  attr {
    key: "squeeze_dims"
    value {
      list {
        i: 1
      }
    }
  }
}
node {
  name: "report_uninitialized_variables/boolean_mask/Gather"
  op: "Gather"
  input: "report_uninitialized_variables/boolean_mask/Reshape"
  input: "report_uninitialized_variables/boolean_mask/Squeeze"
  attr {
    key: "Tindices"
    value {
      type: DT_INT64
    }
  }
  attr {
    key: "Tparams"
    value {
      type: DT_STRING
    }
  }
  attr {
    key: "_output_shapes"
    value {
      list {
        shape {
          dim {
            size: -1
          }
        }
      }
    }
  }
  attr {
    key: "validate_indices"
    value {
      b: true
    }
  }
}
node {
  name: "report_uninitialized_resources/Const"
  op: "Const"
  attr {
    key: "_output_shapes"
    value {
      list {
        shape {
          dim {
          }
        }
      }
    }
  }
  attr {
    key: "dtype"
    value {
      type: DT_STRING
    }
  }
  attr {
    key: "value"
    value {
      tensor {
        dtype: DT_STRING
        tensor_shape {
          dim {
          }
        }
      }
    }
  }
}
node {
  name: "concat/concat_dim"
  op: "Const"
  attr {
    key: "_output_shapes"
    value {
      list {
        shape {
        }
      }
    }
  }
  attr {
    key: "dtype"
    value {
      type: DT_INT32
    }
  }
  attr {
    key: "value"
    value {
      tensor {
        dtype: DT_INT32
        tensor_shape {
        }
        int_val: 0
      }
    }
  }
}
node {
  name: "concat"
  op: "Concat"
  input: "concat/concat_dim"
  input: "report_uninitialized_variables/boolean_mask/Gather"
  input: "report_uninitialized_resources/Const"
  attr {
    key: "N"
    value {
      i: 2
    }
  }
  attr {
    key: "T"
    value {
      type: DT_STRING
    }
  }
  attr {
    key: "_output_shapes"
    value {
      list {
        shape {
          dim {
            size: -1
          }
        }
      }
    }
  }
}
node {
  name: "init_2"
  op: "NoOp"
}
node {
  name: "init_all_tables"
  op: "NoOp"
}
node {
  name: "group_deps_1"
  op: "NoOp"
  input: "^init_2"
  input: "^init_all_tables"
}
node {
  name: "Merge/MergeSummary"
  op: "MergeSummary"
  input: "linear_regression/linear_regression.x"
  input: "linear_regression/linear_regression.y"
  input: "linear_regression/linear_regression.weights"
  input: "linear_regression/linear_regression.bias"
  input: "OptimizeLoss/loss"
  attr {
    key: "N"
    value {
      i: 5
    }
  }
  attr {
    key: "_output_shapes"
    value {
      list {
        shape {
        }
      }
    }
  }
}
node {
  name: "save/Const"
  op: "Const"
  attr {
    key: "_output_shapes"
    value {
      list {
        shape {
        }
      }
    }
  }
  attr {
    key: "dtype"
    value {
      type: DT_STRING
    }
  }
  attr {
    key: "value"
    value {
      tensor {
        dtype: DT_STRING
        tensor_shape {
        }
        string_val: "model"
      }
    }
  }
}
node {
  name: "save/num_shards"
  op: "Const"
  attr {
    key: "_output_shapes"
    value {
      list {
        shape {
        }
      }
    }
  }
  attr {
    key: "dtype"
    value {
      type: DT_INT32
    }
  }
  attr {
    key: "value"
    value {
      tensor {
        dtype: DT_INT32
        tensor_shape {
        }
        int_val: 1
      }
    }
  }
}
node {
  name: "save/ShardedFilename/shard"
  op: "Const"
  attr {
    key: "_output_shapes"
    value {
      list {
        shape {
        }
      }
    }
  }
  attr {
    key: "dtype"
    value {
      type: DT_INT32
    }
  }
  attr {
    key: "value"
    value {
      tensor {
        dtype: DT_INT32
        tensor_shape {
        }
        int_val: 0
      }
    }
  }
}
node {
  name: "save/ShardedFilename"
  op: "ShardedFilename"
  input: "save/Const"
  input: "save/ShardedFilename/shard"
  input: "save/num_shards"
  attr {
    key: "_output_shapes"
    value {
      list {
        shape {
        }
      }
    }
  }
}
node {
  name: "save/save/tensor_names"
  op: "Const"
  attr {
    key: "_output_shapes"
    value {
      list {
        shape {
          dim {
            size: 10
          }
        }
      }
    }
  }
  attr {
    key: "dtype"
    value {
      type: DT_STRING
    }
  }
  attr {
    key: "value"
    value {
      tensor {
        dtype: DT_STRING
        tensor_shape {
          dim {
            size: 10
          }
        }
        string_val: "OptimizeLoss/RNN/MultiRNNCell/Cell0/BasicLSTMCell/Linear/Bias/Adagrad"
        string_val: "OptimizeLoss/RNN/MultiRNNCell/Cell0/BasicLSTMCell/Linear/Matrix/Adagrad"
        string_val: "OptimizeLoss/learning_rate"
        string_val: "OptimizeLoss/linear_regression/bias/Adagrad"
        string_val: "OptimizeLoss/linear_regression/weights/Adagrad"
        string_val: "RNN/MultiRNNCell/Cell0/BasicLSTMCell/Linear/Bias"
        string_val: "RNN/MultiRNNCell/Cell0/BasicLSTMCell/Linear/Matrix"
        string_val: "global_step"
        string_val: "linear_regression/bias"
        string_val: "linear_regression/weights"
      }
    }
  }
}
node {
  name: "save/save/shapes_and_slices"
  op: "Const"
  attr {
    key: "_output_shapes"
    value {
      list {
        shape {
          dim {
            size: 10
          }
        }
      }
    }
  }
  attr {
    key: "dtype"
    value {
      type: DT_STRING
    }
  }
  attr {
    key: "value"
    value {
      tensor {
        dtype: DT_STRING
        tensor_shape {
          dim {
            size: 10
          }
        }
        string_val: ""
        string_val: ""
        string_val: ""
        string_val: ""
        string_val: ""
        string_val: ""
        string_val: ""
        string_val: ""
        string_val: ""
        string_val: ""
      }
    }
  }
}
node {
  name: "save/save"
  op: "SaveSlices"
  input: "save/ShardedFilename"
  input: "save/save/tensor_names"
  input: "save/save/shapes_and_slices"
  input: "OptimizeLoss/RNN/MultiRNNCell/Cell0/BasicLSTMCell/Linear/Bias/Adagrad"
  input: "OptimizeLoss/RNN/MultiRNNCell/Cell0/BasicLSTMCell/Linear/Matrix/Adagrad"
  input: "OptimizeLoss/learning_rate"
  input: "OptimizeLoss/linear_regression/bias/Adagrad"
  input: "OptimizeLoss/linear_regression/weights/Adagrad"
  input: "RNN/MultiRNNCell/Cell0/BasicLSTMCell/Linear/Bias"
  input: "RNN/MultiRNNCell/Cell0/BasicLSTMCell/Linear/Matrix"
  input: "global_step"
  input: "linear_regression/bias"
  input: "linear_regression/weights"
  attr {
    key: "T"
    value {
      list {
        type: DT_FLOAT
        type: DT_FLOAT
        type: DT_FLOAT
        type: DT_FLOAT
        type: DT_FLOAT
        type: DT_FLOAT
        type: DT_FLOAT
        type: DT_INT64
        type: DT_FLOAT
        type: DT_FLOAT
      }
    }
  }
}
node {
  name: "save/control_dependency"
  op: "Identity"
  input: "save/ShardedFilename"
  input: "^save/save"
  attr {
    key: "T"
    value {
      type: DT_STRING
    }
  }
  attr {
    key: "_class"
    value {
      list {
        s: "loc:@save/ShardedFilename"
      }
    }
  }
  attr {
    key: "_output_shapes"
    value {
      list {
        shape {
        }
      }
    }
  }
}
node {
  name: "save/ShardedFilespec"
  op: "ShardedFilespec"
  input: "save/Const"
  input: "save/num_shards"
  input: "^save/control_dependency"
  attr {
    key: "_output_shapes"
    value {
      list {
        shape {
        }
      }
    }
  }
}
node {
  name: "save/RestoreV2/tensor_names"
  op: "Const"
  attr {
    key: "_output_shapes"
    value {
      list {
        shape {
          dim {
            size: 1
          }
        }
      }
    }
  }
  attr {
    key: "dtype"
    value {
      type: DT_STRING
    }
  }
  attr {
    key: "value"
    value {
      tensor {
        dtype: DT_STRING
        tensor_shape {
          dim {
            size: 1
          }
        }
        string_val: "OptimizeLoss/RNN/MultiRNNCell/Cell0/BasicLSTMCell/Linear/Bias/Adagrad"
      }
    }
  }
}
node {
  name: "save/RestoreV2/shape_and_slices"
  op: "Const"
  attr {
    key: "_output_shapes"
    value {
      list {
        shape {
          dim {
            size: 1
          }
        }
      }
    }
  }
  attr {
    key: "dtype"
    value {
      type: DT_STRING
    }
  }
  attr {
    key: "value"
    value {
      tensor {
        dtype: DT_STRING
        tensor_shape {
          dim {
            size: 1
          }
        }
        string_val: ""
      }
    }
  }
}
node {
  name: "save/RestoreV2"
  op: "RestoreV2"
  input: "save/Const"
  input: "save/RestoreV2/tensor_names"
  input: "save/RestoreV2/shape_and_slices"
  attr {
    key: "_output_shapes"
    value {
      list {
        shape {
          unknown_rank: true
        }
      }
    }
  }
  attr {
    key: "dtypes"
    value {
      list {
        type: DT_FLOAT
      }
    }
  }
}
node {
  name: "save/Assign"
  op: "Assign"
  input: "OptimizeLoss/RNN/MultiRNNCell/Cell0/BasicLSTMCell/Linear/Bias/Adagrad"
  input: "save/RestoreV2"
  attr {
    key: "T"
    value {
      type: DT_FLOAT
    }
  }
  attr {
    key: "_class"
    value {
      list {
        s: "loc:@RNN/MultiRNNCell/Cell0/BasicLSTMCell/Linear/Bias"
      }
    }
  }
  attr {
    key: "_output_shapes"
    value {
      list {
        shape {
          dim {
            size: 20
          }
        }
      }
    }
  }
  attr {
    key: "use_locking"
    value {
      b: true
    }
  }
  attr {
    key: "validate_shape"
    value {
      b: true
    }
  }
}
node {
  name: "save/RestoreV2_1/tensor_names"
  op: "Const"
  attr {
    key: "_output_shapes"
    value {
      list {
        shape {
          dim {
            size: 1
          }
        }
      }
    }
  }
  attr {
    key: "dtype"
    value {
      type: DT_STRING
    }
  }
  attr {
    key: "value"
    value {
      tensor {
        dtype: DT_STRING
        tensor_shape {
          dim {
            size: 1
          }
        }
        string_val: "OptimizeLoss/RNN/MultiRNNCell/Cell0/BasicLSTMCell/Linear/Matrix/Adagrad"
      }
    }
  }
}
node {
  name: "save/RestoreV2_1/shape_and_slices"
  op: "Const"
  attr {
    key: "_output_shapes"
    value {
      list {
        shape {
          dim {
            size: 1
          }
        }
      }
    }
  }
  attr {
    key: "dtype"
    value {
      type: DT_STRING
    }
  }
  attr {
    key: "value"
    value {
      tensor {
        dtype: DT_STRING
        tensor_shape {
          dim {
            size: 1
          }
        }
        string_val: ""
      }
    }
  }
}
node {
  name: "save/RestoreV2_1"
  op: "RestoreV2"
  input: "save/Const"
  input: "save/RestoreV2_1/tensor_names"
  input: "save/RestoreV2_1/shape_and_slices"
  attr {
    key: "_output_shapes"
    value {
      list {
        shape {
          unknown_rank: true
        }
      }
    }
  }
  attr {
    key: "dtypes"
    value {
      list {
        type: DT_FLOAT
      }
    }
  }
}
node {
  name: "save/Assign_1"
  op: "Assign"
  input: "OptimizeLoss/RNN/MultiRNNCell/Cell0/BasicLSTMCell/Linear/Matrix/Adagrad"
  input: "save/RestoreV2_1"
  attr {
    key: "T"
    value {
      type: DT_FLOAT
    }
  }
  attr {
    key: "_class"
    value {
      list {
        s: "loc:@RNN/MultiRNNCell/Cell0/BasicLSTMCell/Linear/Matrix"
      }
    }
  }
  attr {
    key: "_output_shapes"
    value {
      list {
        shape {
          dim {
            size: 6
          }
          dim {
            size: 20
          }
        }
      }
    }
  }
  attr {
    key: "use_locking"
    value {
      b: true
    }
  }
  attr {
    key: "validate_shape"
    value {
      b: true
    }
  }
}
node {
  name: "save/RestoreV2_2/tensor_names"
  op: "Const"
  attr {
    key: "_output_shapes"
    value {
      list {
        shape {
          dim {
            size: 1
          }
        }
      }
    }
  }
  attr {
    key: "dtype"
    value {
      type: DT_STRING
    }
  }
  attr {
    key: "value"
    value {
      tensor {
        dtype: DT_STRING
        tensor_shape {
          dim {
            size: 1
          }
        }
        string_val: "OptimizeLoss/learning_rate"
      }
    }
  }
}
node {
  name: "save/RestoreV2_2/shape_and_slices"
  op: "Const"
  attr {
    key: "_output_shapes"
    value {
      list {
        shape {
          dim {
            size: 1
          }
        }
      }
    }
  }
  attr {
    key: "dtype"
    value {
      type: DT_STRING
    }
  }
  attr {
    key: "value"
    value {
      tensor {
        dtype: DT_STRING
        tensor_shape {
          dim {
            size: 1
          }
        }
        string_val: ""
      }
    }
  }
}
node {
  name: "save/RestoreV2_2"
  op: "RestoreV2"
  input: "save/Const"
  input: "save/RestoreV2_2/tensor_names"
  input: "save/RestoreV2_2/shape_and_slices"
  attr {
    key: "_output_shapes"
    value {
      list {
        shape {
          unknown_rank: true
        }
      }
    }
  }
  attr {
    key: "dtypes"
    value {
      list {
        type: DT_FLOAT
      }
    }
  }
}
node {
  name: "save/Assign_2"
  op: "Assign"
  input: "OptimizeLoss/learning_rate"
  input: "save/RestoreV2_2"
  attr {
    key: "T"
    value {
      type: DT_FLOAT
    }
  }
  attr {
    key: "_class"
    value {
      list {
        s: "loc:@OptimizeLoss/learning_rate"
      }
    }
  }
  attr {
    key: "_output_shapes"
    value {
      list {
        shape {
        }
      }
    }
  }
  attr {
    key: "use_locking"
    value {
      b: true
    }
  }
  attr {
    key: "validate_shape"
    value {
      b: true
    }
  }
}
node {
  name: "save/RestoreV2_3/tensor_names"
  op: "Const"
  attr {
    key: "_output_shapes"
    value {
      list {
        shape {
          dim {
            size: 1
          }
        }
      }
    }
  }
  attr {
    key: "dtype"
    value {
      type: DT_STRING
    }
  }
  attr {
    key: "value"
    value {
      tensor {
        dtype: DT_STRING
        tensor_shape {
          dim {
            size: 1
          }
        }
        string_val: "OptimizeLoss/linear_regression/bias/Adagrad"
      }
    }
  }
}
node {
  name: "save/RestoreV2_3/shape_and_slices"
  op: "Const"
  attr {
    key: "_output_shapes"
    value {
      list {
        shape {
          dim {
            size: 1
          }
        }
      }
    }
  }
  attr {
    key: "dtype"
    value {
      type: DT_STRING
    }
  }
  attr {
    key: "value"
    value {
      tensor {
        dtype: DT_STRING
        tensor_shape {
          dim {
            size: 1
          }
        }
        string_val: ""
      }
    }
  }
}
node {
  name: "save/RestoreV2_3"
  op: "RestoreV2"
  input: "save/Const"
  input: "save/RestoreV2_3/tensor_names"
  input: "save/RestoreV2_3/shape_and_slices"
  attr {
    key: "_output_shapes"
    value {
      list {
        shape {
          unknown_rank: true
        }
      }
    }
  }
  attr {
    key: "dtypes"
    value {
      list {
        type: DT_FLOAT
      }
    }
  }
}
node {
  name: "save/Assign_3"
  op: "Assign"
  input: "OptimizeLoss/linear_regression/bias/Adagrad"
  input: "save/RestoreV2_3"
  attr {
    key: "T"
    value {
      type: DT_FLOAT
    }
  }
  attr {
    key: "_class"
    value {
      list {
        s: "loc:@linear_regression/bias"
      }
    }
  }
  attr {
    key: "_output_shapes"
    value {
      list {
        shape {
          dim {
            size: 1
          }
        }
      }
    }
  }
  attr {
    key: "use_locking"
    value {
      b: true
    }
  }
  attr {
    key: "validate_shape"
    value {
      b: true
    }
  }
}
node {
  name: "save/RestoreV2_4/tensor_names"
  op: "Const"
  attr {
    key: "_output_shapes"
    value {
      list {
        shape {
          dim {
            size: 1
          }
        }
      }
    }
  }
  attr {
    key: "dtype"
    value {
      type: DT_STRING
    }
  }
  attr {
    key: "value"
    value {
      tensor {
        dtype: DT_STRING
        tensor_shape {
          dim {
            size: 1
          }
        }
        string_val: "OptimizeLoss/linear_regression/weights/Adagrad"
      }
    }
  }
}
node {
  name: "save/RestoreV2_4/shape_and_slices"
  op: "Const"
  attr {
    key: "_output_shapes"
    value {
      list {
        shape {
          dim {
            size: 1
          }
        }
      }
    }
  }
  attr {
    key: "dtype"
    value {
      type: DT_STRING
    }
  }
  attr {
    key: "value"
    value {
      tensor {
        dtype: DT_STRING
        tensor_shape {
          dim {
            size: 1
          }
        }
        string_val: ""
      }
    }
  }
}
node {
  name: "save/RestoreV2_4"
  op: "RestoreV2"
  input: "save/Const"
  input: "save/RestoreV2_4/tensor_names"
  input: "save/RestoreV2_4/shape_and_slices"
  attr {
    key: "_output_shapes"
    value {
      list {
        shape {
          unknown_rank: true
        }
      }
    }
  }
  attr {
    key: "dtypes"
    value {
      list {
        type: DT_FLOAT
      }
    }
  }
}
node {
  name: "save/Assign_4"
  op: "Assign"
  input: "OptimizeLoss/linear_regression/weights/Adagrad"
  input: "save/RestoreV2_4"
  attr {
    key: "T"
    value {
      type: DT_FLOAT
    }
  }
  attr {
    key: "_class"
    value {
      list {
        s: "loc:@linear_regression/weights"
      }
    }
  }
  attr {
    key: "_output_shapes"
    value {
      list {
        shape {
          dim {
            size: 5
          }
          dim {
            size: 1
          }
        }
      }
    }
  }
  attr {
    key: "use_locking"
    value {
      b: true
    }
  }
  attr {
    key: "validate_shape"
    value {
      b: true
    }
  }
}
node {
  name: "save/RestoreV2_5/tensor_names"
  op: "Const"
  attr {
    key: "_output_shapes"
    value {
      list {
        shape {
          dim {
            size: 1
          }
        }
      }
    }
  }
  attr {
    key: "dtype"
    value {
      type: DT_STRING
    }
  }
  attr {
    key: "value"
    value {
      tensor {
        dtype: DT_STRING
        tensor_shape {
          dim {
            size: 1
          }
        }
        string_val: "RNN/MultiRNNCell/Cell0/BasicLSTMCell/Linear/Bias"
      }
    }
  }
}
node {
  name: "save/RestoreV2_5/shape_and_slices"
  op: "Const"
  attr {
    key: "_output_shapes"
    value {
      list {
        shape {
          dim {
            size: 1
          }
        }
      }
    }
  }
  attr {
    key: "dtype"
    value {
      type: DT_STRING
    }
  }
  attr {
    key: "value"
    value {
      tensor {
        dtype: DT_STRING
        tensor_shape {
          dim {
            size: 1
          }
        }
        string_val: ""
      }
    }
  }
}
node {
  name: "save/RestoreV2_5"
  op: "RestoreV2"
  input: "save/Const"
  input: "save/RestoreV2_5/tensor_names"
  input: "save/RestoreV2_5/shape_and_slices"
  attr {
    key: "_output_shapes"
    value {
      list {
        shape {
          unknown_rank: true
        }
      }
    }
  }
  attr {
    key: "dtypes"
    value {
      list {
        type: DT_FLOAT
      }
    }
  }
}
node {
  name: "save/Assign_5"
  op: "Assign"
  input: "RNN/MultiRNNCell/Cell0/BasicLSTMCell/Linear/Bias"
  input: "save/RestoreV2_5"
  attr {
    key: "T"
    value {
      type: DT_FLOAT
    }
  }
  attr {
    key: "_class"
    value {
      list {
        s: "loc:@RNN/MultiRNNCell/Cell0/BasicLSTMCell/Linear/Bias"
      }
    }
  }
  attr {
    key: "_output_shapes"
    value {
      list {
        shape {
          dim {
            size: 20
          }
        }
      }
    }
  }
  attr {
    key: "use_locking"
    value {
      b: true
    }
  }
  attr {
    key: "validate_shape"
    value {
      b: true
    }
  }
}
node {
  name: "save/RestoreV2_6/tensor_names"
  op: "Const"
  attr {
    key: "_output_shapes"
    value {
      list {
        shape {
          dim {
            size: 1
          }
        }
      }
    }
  }
  attr {
    key: "dtype"
    value {
      type: DT_STRING
    }
  }
  attr {
    key: "value"
    value {
      tensor {
        dtype: DT_STRING
        tensor_shape {
          dim {
            size: 1
          }
        }
        string_val: "RNN/MultiRNNCell/Cell0/BasicLSTMCell/Linear/Matrix"
      }
    }
  }
}
node {
  name: "save/RestoreV2_6/shape_and_slices"
  op: "Const"
  attr {
    key: "_output_shapes"
    value {
      list {
        shape {
          dim {
            size: 1
          }
        }
      }
    }
  }
  attr {
    key: "dtype"
    value {
      type: DT_STRING
    }
  }
  attr {
    key: "value"
    value {
      tensor {
        dtype: DT_STRING
        tensor_shape {
          dim {
            size: 1
          }
        }
        string_val: ""
      }
    }
  }
}
node {
  name: "save/RestoreV2_6"
  op: "RestoreV2"
  input: "save/Const"
  input: "save/RestoreV2_6/tensor_names"
  input: "save/RestoreV2_6/shape_and_slices"
  attr {
    key: "_output_shapes"
    value {
      list {
        shape {
          unknown_rank: true
        }
      }
    }
  }
  attr {
    key: "dtypes"
    value {
      list {
        type: DT_FLOAT
      }
    }
  }
}
node {
  name: "save/Assign_6"
  op: "Assign"
  input: "RNN/MultiRNNCell/Cell0/BasicLSTMCell/Linear/Matrix"
  input: "save/RestoreV2_6"
  attr {
    key: "T"
    value {
      type: DT_FLOAT
    }
  }
  attr {
    key: "_class"
    value {
      list {
        s: "loc:@RNN/MultiRNNCell/Cell0/BasicLSTMCell/Linear/Matrix"
      }
    }
  }
  attr {
    key: "_output_shapes"
    value {
      list {
        shape {
          dim {
            size: 6
          }
          dim {
            size: 20
          }
        }
      }
    }
  }
  attr {
    key: "use_locking"
    value {
      b: true
    }
  }
  attr {
    key: "validate_shape"
    value {
      b: true
    }
  }
}
node {
  name: "save/RestoreV2_7/tensor_names"
  op: "Const"
  attr {
    key: "_output_shapes"
    value {
      list {
        shape {
          dim {
            size: 1
          }
        }
      }
    }
  }
  attr {
    key: "dtype"
    value {
      type: DT_STRING
    }
  }
  attr {
    key: "value"
    value {
      tensor {
        dtype: DT_STRING
        tensor_shape {
          dim {
            size: 1
          }
        }
        string_val: "global_step"
      }
    }
  }
}
node {
  name: "save/RestoreV2_7/shape_and_slices"
  op: "Const"
  attr {
    key: "_output_shapes"
    value {
      list {
        shape {
          dim {
            size: 1
          }
        }
      }
    }
  }
  attr {
    key: "dtype"
    value {
      type: DT_STRING
    }
  }
  attr {
    key: "value"
    value {
      tensor {
        dtype: DT_STRING
        tensor_shape {
          dim {
            size: 1
          }
        }
        string_val: ""
      }
    }
  }
}
node {
  name: "save/RestoreV2_7"
  op: "RestoreV2"
  input: "save/Const"
  input: "save/RestoreV2_7/tensor_names"
  input: "save/RestoreV2_7/shape_and_slices"
  attr {
    key: "_output_shapes"
    value {
      list {
        shape {
          unknown_rank: true
        }
      }
    }
  }
  attr {
    key: "dtypes"
    value {
      list {
        type: DT_INT64
      }
    }
  }
}
node {
  name: "save/Assign_7"
  op: "Assign"
  input: "global_step"
  input: "save/RestoreV2_7"
  attr {
    key: "T"
    value {
      type: DT_INT64
    }
  }
  attr {
    key: "_class"
    value {
      list {
        s: "loc:@global_step"
      }
    }
  }
  attr {
    key: "_output_shapes"
    value {
      list {
        shape {
        }
      }
    }
  }
  attr {
    key: "use_locking"
    value {
      b: true
    }
  }
  attr {
    key: "validate_shape"
    value {
      b: true
    }
  }
}
node {
  name: "save/RestoreV2_8/tensor_names"
  op: "Const"
  attr {
    key: "_output_shapes"
    value {
      list {
        shape {
          dim {
            size: 1
          }
        }
      }
    }
  }
  attr {
    key: "dtype"
    value {
      type: DT_STRING
    }
  }
  attr {
    key: "value"
    value {
      tensor {
        dtype: DT_STRING
        tensor_shape {
          dim {
            size: 1
          }
        }
        string_val: "linear_regression/bias"
      }
    }
  }
}
node {
  name: "save/RestoreV2_8/shape_and_slices"
  op: "Const"
  attr {
    key: "_output_shapes"
    value {
      list {
        shape {
          dim {
            size: 1
          }
        }
      }
    }
  }
  attr {
    key: "dtype"
    value {
      type: DT_STRING
    }
  }
  attr {
    key: "value"
    value {
      tensor {
        dtype: DT_STRING
        tensor_shape {
          dim {
            size: 1
          }
        }
        string_val: ""
      }
    }
  }
}
node {
  name: "save/RestoreV2_8"
  op: "RestoreV2"
  input: "save/Const"
  input: "save/RestoreV2_8/tensor_names"
  input: "save/RestoreV2_8/shape_and_slices"
  attr {
    key: "_output_shapes"
    value {
      list {
        shape {
          unknown_rank: true
        }
      }
    }
  }
  attr {
    key: "dtypes"
    value {
      list {
        type: DT_FLOAT
      }
    }
  }
}
node {
  name: "save/Assign_8"
  op: "Assign"
  input: "linear_regression/bias"
  input: "save/RestoreV2_8"
  attr {
    key: "T"
    value {
      type: DT_FLOAT
    }
  }
  attr {
    key: "_class"
    value {
      list {
        s: "loc:@linear_regression/bias"
      }
    }
  }
  attr {
    key: "_output_shapes"
    value {
      list {
        shape {
          dim {
            size: 1
          }
        }
      }
    }
  }
  attr {
    key: "use_locking"
    value {
      b: true
    }
  }
  attr {
    key: "validate_shape"
    value {
      b: true
    }
  }
}
node {
  name: "save/RestoreV2_9/tensor_names"
  op: "Const"
  attr {
    key: "_output_shapes"
    value {
      list {
        shape {
          dim {
            size: 1
          }
        }
      }
    }
  }
  attr {
    key: "dtype"
    value {
      type: DT_STRING
    }
  }
  attr {
    key: "value"
    value {
      tensor {
        dtype: DT_STRING
        tensor_shape {
          dim {
            size: 1
          }
        }
        string_val: "linear_regression/weights"
      }
    }
  }
}
node {
  name: "save/RestoreV2_9/shape_and_slices"
  op: "Const"
  attr {
    key: "_output_shapes"
    value {
      list {
        shape {
          dim {
            size: 1
          }
        }
      }
    }
  }
  attr {
    key: "dtype"
    value {
      type: DT_STRING
    }
  }
  attr {
    key: "value"
    value {
      tensor {
        dtype: DT_STRING
        tensor_shape {
          dim {
            size: 1
          }
        }
        string_val: ""
      }
    }
  }
}
node {
  name: "save/RestoreV2_9"
  op: "RestoreV2"
  input: "save/Const"
  input: "save/RestoreV2_9/tensor_names"
  input: "save/RestoreV2_9/shape_and_slices"
  attr {
    key: "_output_shapes"
    value {
      list {
        shape {
          unknown_rank: true
        }
      }
    }
  }
  attr {
    key: "dtypes"
    value {
      list {
        type: DT_FLOAT
      }
    }
  }
}
node {
  name: "save/Assign_9"
  op: "Assign"
  input: "linear_regression/weights"
  input: "save/RestoreV2_9"
  attr {
    key: "T"
    value {
      type: DT_FLOAT
    }
  }
  attr {
    key: "_class"
    value {
      list {
        s: "loc:@linear_regression/weights"
      }
    }
  }
  attr {
    key: "_output_shapes"
    value {
      list {
        shape {
          dim {
            size: 5
          }
          dim {
            size: 1
          }
        }
      }
    }
  }
  attr {
    key: "use_locking"
    value {
      b: true
    }
  }
  attr {
    key: "validate_shape"
    value {
      b: true
    }
  }
}
node {
  name: "save/restore_shard"
  op: "NoOp"
  input: "^save/Assign"
  input: "^save/Assign_1"
  input: "^save/Assign_2"
  input: "^save/Assign_3"
  input: "^save/Assign_4"
  input: "^save/Assign_5"
  input: "^save/Assign_6"
  input: "^save/Assign_7"
  input: "^save/Assign_8"
  input: "^save/Assign_9"
}
node {
  name: "save/restore_all"
  op: "NoOp"
  input: "^save/restore_shard"
}
versions {
  producer: 17
}
